embeddings_classifier_model/emb_classifier.pth (torch, 791383 bytes, 5 tensors)

l1.weight f4 [256, 512]
0	0x3c672d68	0.014109947
1	0x3cb97326	0.022637915
2	0xbd104f1b	-0.03523169
3	0x3ce7efc2	0.028312568
4	0xbbe0ba1f	-0.006858125
5	0x3d18b345	0.03728034
6	0xbc69b9bc	-0.014265474
7	0x3d1fcf9f	0.039016362
8	0xbcab6e93	-0.02092675
9	0x3cca21b0	0.024674267
10	0x3cb03f62	0.021514598
11	0x3cffe386	0.031236421
12	0x3d1056d5	0.03523906
13	0x3c16354a	0.009167979
14	0xbce36397	-0.02775745
15	0xbb96b94e	-0.0045997268
16	0x3ca95aac	0.020673119
17	0xbd30f2d6	-0.043200336
18	0xbba263ce	-0.0049557453
19	0x3cd7e62e	0.026354875
20	0x3ba3565e	0.004984661
21	0xbc03ef46	-0.008052653
22	0x3d1432e3	0.03618134
23	0x3c9b3842	0.018947724
24	0x3cb713f6	0.022348385
25	0x3d14b52f	0.036305603
26	0x3cc1a8a4	0.023639984
27	0xbc7f390f	-0.015577569
28	0x3cb3d20a	0.02195074
29	0xbbf29066	-0.0074024675
30	0x3c813a94	0.015775003
31	0xbca58f56	-0.02020995
32	0xbbcf38a0	-0.006323889
33	0x3c92481e	0.017856654
34	0x3d0e862b	0.03479592
35	0x3c19107c	0.009342309
36	0xbd105d30	-0.03524512
37	0xbd08891e	-0.03333389
38	0x3cf40aee	0.029790368
39	0x3bb5372e	0.0055302596
40	0xbbb06350	-0.0053829327
41	0x3a247ed8	0.00062750047
42	0xbc554508	-0.013016947
43	0xbcddde3f	-0.027083514
44	0xbcbeaef7	-0.02327679
45	0x3bdda9cb	0.0067646257
46	0x3d152f1b	0.036421876
47	0x3c2899d2	0.01029058
48	0xbd2de664	-0.042456046
49	0xbc10053e	-0.008790312
50	0x3cc146ec	0.023593388
51	0x3bb07e58	0.005386155
52	0xbd00a346	-0.03140571
53	0xbc735320	-0.0148513615
54	0x3cea6836	0.028614145
55	0xbcd76fa0	-0.026298344
56	0xbc9d65e3	-0.019213622
57	0x3cf1aca8	0.029501274
58	0x3c446866	0.011987781
59	0xbcdfe8d0	-0.027332693
60	0x3bfb020a	0.007660155
61	0x3cb94aee	0.022618737
62	0xbcc93ea9	-0.024566012
63	0x3c297f22	0.010345252
64	0xbd12a4ec	-0.035801813
65	0xbbb8d59a	-0.0056406977
66	0x3c1b9140	0.0094950795
67	0xbc0ceb8c	-0.008601081
68	0x3c96c9c8	0.018406764
69	0xbd20f3a4	-0.039294854
70	0x3a79e4c8	0.0009532687
71	0x3cfc5faa	0.030807335
72	0xbcfdc5ee	-0.03097817
73	0xbd16df3e	-0.036833994
74	0xbc14d2bc	-0.009083446
75	0x3aee911a	0.0018201203
76	0x3c92e0b0	0.017929405
77	0x3cbb5928	0.022869661
78	0x3bd6164d	0.00653342
79	0xbc8634de	-0.01638263
80	0xbcb1be7d	-0.021697277
81	0x3c21718c	0.009853732
82	0xbc69f6a0	-0.014279991
83	0xbc7e35ac	-0.015515726
84	0x3d016ad7	0.03159603
85	0x3d01780f	0.031608637
86	0x3c467ed8	0.012115203
87	0xbca2e71a	-0.019885588
88	0x3d3175a7	0.043325093
89	0xbd0c7814	-0.034294203
90	0x3c936018	0.017990157
91	0xbc740a82	-0.014895083
92	0x3c0db7a6	0.008649742
93	0x3cb1fcd4	0.021727003
94	0x3d268f8d	0.040664244
95	0xbcb8ed61	-0.022574129
96	0xbcf47150	-0.029839188
97	0x3cf0c2c2	0.029389743
98	0xbc0a96a6	-0.008458769
99	0xbd2619c5	-0.04055192
100	0xbd108aa6	-0.035288475
101	0xbd226368	-0.039645582
102	0x3c3b1d9e	0.0114206355
103	0xbd2d5356	-0.042315803
104	0x3c9c240a	0.019060154
105	0x3ca6d884	0.020366915
106	0xbce6dad0	-0.02818051
107	0x3d2f4fa3	0.042800557
108	0xbc88b3fa	-0.016687382
109	0xbca0f078	-0.019645914
110	0x3c8e1488	0.017343774
111	0xbcfd0326	-0.03088529
112	0x3b42ca70	0.0029722713
113	0x3d078c4b	0.03309278
114	0xbd1698d3	-0.03676684
115	0x3ca69734	0.020335771
116	0x3bc4b8ba	0.0060034664
117	0x3b4a58da	0.0030875714
118	0xbcf2326c	-0.029565059
119	0xbd1833bf	-0.037158724
120	0x3d0779cb	0.033075135
121	0x3d0985c5	0.03357484
122	0x3cb07c66	0.021543693
123	0xbcf0b192	-0.029381547
124	0x3d30b35f	0.04313981
125	0xbcad1015	-0.021125833
126	0xbb14eac4	-0.002272294
127	0xbb8a73be	-0.0042252233
128	0x3b69a1c2	0.0035649394
129	0x3d24a80d	0.04019933
130	0xbc82297f	-0.015888928
131	0x3cace47c	0.021105044
132	0x3c444f1e	0.011981754
133	0x3b6a5eb4	0.0035762014
134	0xbd0ff6ef	-0.035147604
135	0x3d0c5c63	0.034267794
136	0x3b974eae	0.0046175336
137	0xbca417b2	-0.02003083
138	0x3d3487c9	0.044074807
139	0x3d067e0f	0.032835063
140	0xbb253278	-0.0025207084
141	0xbc5f3f9a	-0.013626004
142	0xbc846906	-0.01616336
143	0xbcedf0c2	-0.029045466
144	0x3c8b7d80	0.017027617
145	0xbc935e72	-0.017989371
146	0x3d0db38f	0.03459507
147	0xbbba815c	-0.0056916904
148	0x3cfc9cae	0.03083643
149	0xbcce63ba	-0.025194038
150	0xbd0c2061	-0.034210566
151	0xbc68069a	-0.01416173
152	0xbc2ba66e	-0.010476692
153	0xbd301feb	-0.04299919
154	0xbb7c6fec	-0.003851886
155	0xbd230417	-0.039798822
156	0x3c0182d2	0.007904725
157	0xbcbc2946	-0.0229689
158	0x3cedb79e	0.02901822
159	0xbd2c69f5	-0.042093236
160	0x3cb65e2a	0.022261698
161	0xbd30d14e	-0.04316836
162	0xbcaa6688	-0.020800844
163	0xbd0591c7	-0.032609727
164	0x3c779b76	0.015112748
165	0xbcf8637e	-0.03032088
166	0x3d125913	0.03572948
167	0xbd25abf0	-0.040447176
168	0x3d0cc5e5	0.034368414
169	0x3c891816	0.016735118
170	0x3ca85422	0.02054793
171	0xbd2a9c81	-0.04165316
172	0x3aec6456	0.0018035274
173	0x3d12ed05	0.03587057
174	0xbd2bd384	-0.041949764
175	0xbd1afbfc	-0.037837967
176	0x3d33ec67	0.043926623
177	0xbd09f07a	-0.033676602
178	0x3c9f5b3c	0.019452684
179	0xbcb38fc4	-0.021919139
180	0x3bd231cc	0.0064146277
181	0x3c33c760	0.010972828
182	0xbd1dc9a5	-0.03852238
183	0x3c9a04f4	0.01880119
184	0xbcea35ca	-0.028590102
185	0xbc3835b6	-0.011243274
186	0xbbadf1a4	-0.005308347
187	0x3cd66d90	0.02617529
188	0x3c89ffac	0.016845547
189	0x3cfa2e8e	0.030539777
190	0x3cddc912	0.027073417
191	0x3d0ab17d	0.033860672
192	0x3cb8e564	0.02257032
193	0xbcb052f9	-0.02152394
194	0x3c138866	0.009004688
195	0xbd2007a4	-0.039069787
196	0xbc888ff3	-0.016670203
197	0xbc7ecb78	-0.01555144
198	0xbccbdbbf	-0.024885057
199	0xbc09c7fc	-0.008409496
200	0x3d2e2d7d	0.04252385
201	0xbbfe69e6	-0.007764089
202	0xbd25d23b	-0.040483695
203	0xbd005f9a	-0.031341173
204	0xbcd41928	-0.025890902
205	0x3bae6c5c	0.005322976
206	0x3d23584f	0.03987914
207	0xbd03ceb9	-0.032179568
208	0x3d2ee431	0.04269809
209	0xbc41f902	-0.011839153
210	0x3d091705	0.03346922
211	0x3c8403e8	0.016115144
212	0xbbe65ca6	-0.0070300875
213	0xbca70430	-0.020387739
214	0x3c6e0d9c	0.014529612
215	0x3d1aa87c	0.037758335
216	0x3d114bed	0.0354728
217	0x3d0d9e47	0.034574773
218	0x3cac9124	0.021065302
219	0x3c59a1ca	0.013283202
220	0xbd082c50	-0.033245385
221	0xbc01074e	-0.007875277
222	0x3d164ecd	0.036696244
223	0x3d007889	0.03136495
224	0x3d206d55	0.039166767
225	0x3c8983b0	0.016786426
226	0xbd2ad527	-0.041707184
227	0x3ac8ea08	0.0015328536
228	0xbc842e28	-0.01613529
229	0xbd290f0d	-0.04127412
230	0x3bec2af6	0.00720727
231	0xbcaac864	-0.020847507
232	0x3ca1d122	0.019753043
233	0x3d110287	0.0354028
234	0xbcf5b58f	-0.0299938
235	0xbcebb2d6	-0.028771799
236	0x3bb22ca2	0.0054374496
237	0xbd179281	-0.03700495
238	0xbb63223a	-0.0034657852
239	0x3cfc2679	0.030780064
240	0x3caba384	0.020951994
241	0xbb72a7ce	-0.003702629
242	0xbc6f6082	-0.014610412
243	0xb8e81030	-0.00011065637
244	0x3c07e1ea	0.008293608
245	0xbd2b1b21	-0.04177392
246	0xbca613ec	-0.020273171
247	0xbd2f7e8d	-0.042845298
248	0xba8e2fda	-0.0010848001
249	0x3d0a6bfb	0.033794384
250	0xbcbbada5	-0.022909949
251	0x3cc180c0	0.023620963
252	0x3cb38436	0.021913629
253	0x3c803ff6	0.015655499
254	0xbcb03e04	-0.021513946
255	0x3cd18ede	0.02558082

l1.bias f4 [256]
0	0x3d1432af	0.03618115
1	0xbc6ed3e8	-0.01457689
2	0x3c604c06	0.01369
3	0x3c570aca	0.013125131
4	0x3cadfb8a	0.021238107
5	0xbb9a8b5a	-0.004716319
6	0x3c9d254c	0.019182824
7	0x3cbbf4e0	0.022943914
8	0x3d2ca3a9	0.042148266
9	0x3bebd066	0.007196474
10	0x3c9bd75e	0.019023594
11	0xbc8c8962	-0.017155353
12	0xbd300b4b	-0.04297952
13	0xbc2f737a	-0.010708684
14	0xbcb54a14	-0.02213005
15	0x3d14da19	0.036340807
16	0x3d164a3f	0.0366919
17	0x3cfb1c88	0.030653253
18	0xbd0302b4	-0.031985
19	0xbce2c3cb	-0.027681252
20	0xbbcf1d80	-0.0063206553
21	0x3ca92684	0.020648248
22	0xbd283f37	-0.04107591
23	0xbcb0d682	-0.02158666
24	0xbd1d7da4	-0.0384499
25	0xbd30e877	-0.043190446
26	0xbd207c9e	-0.039181344
27	0xbc9bae3e	-0.019003984
28	0x3d1058c9	0.035240922
29	0x3c94c5e4	0.018160768
30	0x3b130f92	0.00224397
31	0xbd308139	-0.043091986
32	0x3bfab45a	0.007650894
33	0x3d2f8807	0.042854335
34	0x3cccbc12	0.024992023
35	0xbc0a7c62	-0.008452507
36	0xbd172612	-0.03690154
37	0xbc8429ab	-0.01613315
38	0xbb9189c8	-0.0044414736
39	0x3c382736	0.011239817
40	0x3ce09f60	0.027419746
41	0xbcae6a17	-0.021290822
42	0xbd07f82d	-0.033195663
43	0xbce55c1b	-0.02799802
44	0xbce33792	-0.027736459
45	0x3a7cd48c	0.0009644709
46	0xbd16c5ce	-0.036809735
47	0xbd089eec	-0.033354685
48	0x3d053d79	0.032529328
49	0x3c593e62	0.013259502
50	0x3ba8f4de	0.0051561436
51	0x3d0d7593	0.034535956
52	0xbc2c3daa	-0.010512749
53	0x3b79db88	0.0038125236
54	0xbd0ebe74	-0.0348496
55	0xbd2bb1e6	-0.041917704
56	0x3d119f49	0.035552297
57	0x3d282723	0.04105295
58	0xbca2407e	-0.019806143
59	0x3caaed52	0.020865116
60	0xbc8dd081	-0.017311336
61	0x3cc4d7fc	0.02402877
62	0x3ca80ffe	0.020515438
63	0xbc8e5809	-0.017375963
64	0xbd09d188	-0.03364709
65	0xbd0e8c92	-0.034802027
66	0xbd305211	-0.043047015
67	0xbcb7bccb	-0.02242889
68	0xbc90cece	-0.017676737
69	0xbcd72dad	-0.026266897
70	0x3d1c5f6d	0.038176943
71	0xbb4bc55c	-0.0031092977
72	0x3cf803dc	0.030275278
73	0xbba6188a	-0.0050688433
74	0x3c9d28dc	0.019184522
75	0x3d179d10	0.03701502
76	0xbd01a21e	-0.031648748
77	0xbcf028c2	-0.02931631
78	0x3d0961b1	0.03354043
79	0xbd1d1442	-0.038349397
80	0xbc7ccf98	-0.015430354
81	0xbc3d94cc	-0.0115711205
82	0xbc8c368b	-0.017115852
83	0xbc8aeef0	-0.016959637
84	0x3c8edbc2	0.017438773
85	0x3d244381	0.04010344
86	0x3d2c8613	0.04212005
87	0x3cba0462	0.022707168
88	0x3c8a62c2	0.016892795
89	0xbd2f7c49	-0.042843137
90	0x3bf392e0	0.0074332803
91	0x3ca70552	0.02038828
92	0xbbc3a830	-0.0059709772
93	0x3cab307a	0.020897139
94	0x3d02b1d9	0.03190789
95	0x3cb79815	0.022411386
96	0x3c36af90	0.011150256
97	0x3d1f36d2	0.03887064
98	0xbbfb5c32	-0.0076709026
99	0x3c359342	0.011082472
100	0xbcb7580c	-0.022380851
101	0xbcac96ff	-0.021068094
102	0xbcc19f4a	-0.023635525
103	0xbc37f0c2	-0.011226835
104	0xbbdabfd8	-0.0066757016
105	0xbcb1fd16	-0.021727126
106	0xbd2dab64	-0.04239978
107	0xbcd8c4be	-0.026461001
108	0xbd19e639	-0.037573073
109	0xbcd4d71b	-0.025981477
110	0xbd14c42b	-0.036319893
111	0x3c9f4ccc	0.0194458
112	0xbbbbd08e	-0.0057316488
113	0x3ca70a72	0.020390723
114	0x3ba58b7a	0.0050520273
115	0x3d14c96f	0.036324915
116	0x3d1df463	0.038563143
117	0x3cbfe87a	0.023426283
118	0x3cd8986a	0.026439864
119	0xbabac316	-0.0014248814
120	0xbc621456	-0.013798794
121	0x3ce0d75a	0.027446438
122	0xbc8a5719	-0.016887235
123	0xbc4ab06e	-0.012371166
124	0xbd1eec02	-0.038799293
125	0x3c794438	0.0152140185
126	0xba879012	-0.0010342619
127	0xbc87ae96	-0.016562741
128	0x3ca87c7c	0.020567171
129	0x3bf7cb56	0.0075620813
130	0x3d0e4639	0.03473494
131	0x3ce73b46	0.028226506
132	0x3d21fc65	0.039547343
133	0x3cdceee4	0.02696938
134	0x3c83c410	0.0160847
135	0x3cc5bac6	0.024136912
136	0xbd156c06	-0.036479972
137	0xbd150a35	-0.036386687
138	0x3b5c16a0	0.0033582821
139	0xbc014692	-0.00789036
140	0xbca27cc8	-0.019834891
141	0xbcfeb8e6	-0.031094026
142	0x3d302f5b	0.04301391
143	0x3d20bc90	0.039242327
144	0x3ce0055c	0.027346306
145	0xbbf0ab7c	-0.0073446613
146	0x3bd0905a	0.0063648643
147	0xbc879bed	-0.016553843
148	0xbcba2fa6	-0.022727799
149	0xbc4aba22	-0.012373479
150	0xbbc7b676	-0.006094749
151	0xbc939296	-0.018014234
152	0xbc626518	-0.013818048
153	0x3c9548be	0.018223163
154	0xbd2a8711	-0.041632716
155	0xbd3065e4	-0.04306592
156	0x3d17e283	0.037081253
157	0x3ca2fea8	0.01989682
158	0xbc549994	-0.012976069
159	0x3ce6ff6a	0.028197963
160	0xbc824913	-0.015903985
161	0x3c3c069a	0.011476183
162	0x3caed0c4	0.021339782
163	0xbcd7ebe5	-0.0263576
164	0xbc463ba0	-0.012099177
165	0x3b24c648	0.00251426
166	0x3d2f4347	0.04278877
167	0x3cd6db60	0.026227653
168	0x3c37bdd6	0.011214694
169	0x3d01fde5	0.031736273
170	0xbd0c6626	-0.034277104
171	0xb9a6073a	-0.00031667372
172	0x3d1ef8eb	0.038811605
173	0x3bc7d7ae	0.006098709
174	0xbd181293	-0.03712709
175	0xbc948f79	-0.01813482
176	0x3d2909d9	0.041269157
177	0xbcd3151e	-0.025766905
178	0x3d0d50a7	0.034500744
179	0xbd01f36b	-0.031726282
180	0x3d137065	0.03599586
181	0x3c996674	0.018725611
182	0x3cead37e	0.0286653
183	0xbcb63138	-0.022240266
184	0x3a987868	0.0011632564
185	0x3ce35e18	0.027754828
186	0xbbef7502	-0.0073076496
187	0x3c071e62	0.00824699
188	0x3d19e425	0.03757109
189	0x3c558b80	0.013033748
190	0xbd16c79c	-0.036811456
191	0x3ba4e528	0.0050322004
192	0x3c84e508	0.016222492
193	0xbcc96ba4	-0.02458746
194	0x3ab3047c	0.0013657953
195	0x3b0aa176	0.0021153367
196	0xbc948604	-0.01813031
197	0x3cc974ea	0.024591882
198	0xbce6cc53	-0.028173601
199	0xbc626c42	-0.013819756
200	0x3cdc27b4	0.0268744
201	0xba7e27ae	-0.0009695244
202	0xbd2e406a	-0.0425419
203	0x3c9afe1e	0.01892
204	0x3d2a7b85	0.041621704
205	0xbcbb1165	-0.022835443
206	0xbd1f704a	-0.038925447
207	0xbcdb3bd0	-0.02676192
208	0x3b9f69da	0.0048649134
209	0x3d2bd7eb	0.041953962
210	0xbbf0fc4c	-0.007354295
211	0x3c1585e4	0.00912616
212	0xbd2e213b	-0.04251216
213	0xbd0d8c79	-0.034557793
214	0xbc7f54a4	-0.015584145
215	0xbcd4b4e1	-0.025965156
216	0xbcd27ded	-0.025694812
217	0x3ba836ac	0.0051334705
218	0x3cbfa54e	0.023394253
219	0xbca75984	-0.020428427
220	0xbd1db5ca	-0.038503446
221	0xbcc08a08	-0.023503318
222	0x3ccd3b74	0.025052764
223	0x3c0cc220	0.008591205
224	0xbd022498	-0.03177318
225	0x3d1295a9	0.03578726
226	0xbc4af72a	-0.01238803
227	0xbc65dda6	-0.014029896
228	0xbc9addf4	-0.018904664
229	0x3d0fc4a3	0.035099637
230	0x3b8db52a	0.004324575
231	0x3cac9148	0.02106537
232	0x3d0190c3	0.031632196
233	0xbc38dcde	-0.011283128
234	0xbcc90eb9	-0.024543153
235	0x3d14eb47	0.03635719
236	0xbc488800	-0.012239456
237	0xbd26b9ce	-0.04070454
238	0x3c237eba	0.009978944
239	0x3c0006c8	0.007814117
240	0x3d0498cb	0.032372277
241	0x3d0fd01d	0.03511058
242	0xbcbd38e9	-0.023098426
243	0x3cd3a580	0.025835752
244	0xbba7efcc	-0.0051250216
245	0xbac60b64	-0.0015109596
246	0x3d05ab0d	0.03263383
247	0x3cddc76e	0.027072635
248	0x3d34f5df	0.044179793
249	0xbc6d2db4	-0.0144762285
250	0x3ba1e92c	0.0049411263
251	0xb9ece353	-0.00045182797
252	0xbd24a57e	-0.04019689
253	0x3d183975	0.03716417
254	0x3d2c2899	0.042030904
255	0xbc6e3c26	-0.014540708

l2.weight f4 [256, 256]
0	0xbc96ed02	-0.018423561
1	0x3d366efc	0.044539437
2	0x3c9dfe10	0.019286186
3	0x3d227208	0.03965953
4	0xbd741e18	-0.059599012
5	0x3d1208ba	0.035652854
6	0x3c9af4b8	0.01891552
7	0xbd7b0f3e	-0.061293833
8	0xbbadc5e4	-0.0053031314
9	0x3d37e13e	0.044892542
10	0xbcfdf03e	-0.030998345
11	0xbd538402	-0.051639564
12	0xbd280f54	-0.041030243
13	0xbc8ec208	-0.017426506
14	0x39b4f70e	0.00034516345
15	0xbd2e7804	-0.042594925
16	0x3d7f99b8	0.062402457
17	0x3b9759b6	0.0046188487
18	0xbd7f500a	-0.06233219
19	0x3d3ca254	0.046053246
20	0x3ac060fc	0.0014677341
21	0x3d07002c	0.03295915
22	0xbd57bb88	-0.052669078
23	0x3c4c819c	0.012482073
24	0x3cfca324	0.03083951
25	0x3d5e855c	0.0543264
26	0xbbbb8e36	-0.00572374
27	0xbb6732b0	-0.0035278015
28	0xbd432920	-0.04764664
29	0xbd7bcade	-0.061472766
30	0x3d5b4f26	0.05354228
31	0xbd4e51aa	-0.05037085
32	0xbd335070	-0.043777883
33	0x3ccd6c52	0.025076065
34	0x3d462b5a	0.048381187
35	0x3d6518e2	0.055931933
36	0xbd48ec0a	-0.04905323
37	0xbcf34b68	-0.029699042
38	0xbc06a8f0	-0.008218989
39	0x3d776b1a	0.060404874
40	0xbc4a21ca	-0.0123371575
41	0x3cd7da94	0.026349343
42	0xbd1c775e	-0.038199775
43	0x3d616456	0.05502733
44	0xbcdc527e	-0.026894804
45	0xbc08c084	-0.008346681
46	0xbc525644	-0.01283795
47	0x3d1c335a	0.03813491
48	0x3c7df94e	0.015501333
49	0xbd447dda	-0.047971584
50	0x3d04d464	0.032429114
51	0x3d7be8ee	0.061501436
52	0xbcf5e01a	-0.030014087
53	0x3c82bc4c	0.015958928
54	0x3c8b09c2	0.016972426
55	0x3ceaac94	0.028646745
56	0x3ca73d18	0.020414874
57	0xbc442aea	-0.011973122
58	0xbb8e6dca	-0.004346584
59	0x3d33c8d0	0.04389268
60	0xbd23b3da	-0.03996644
61	0x3c1404c2	0.0090343375
62	0x3cb98bf0	0.022649735
63	0x3d76a234	0.060213283
64	0x3d0f28ce	0.034951024
65	0x3d0b3f26	0.03399577
66	0xbc1a6a22	-0.009424718
67	0xbd27c318	-0.04095754
68	0x3d4d3e4a	0.05010823
69	0x3d1a586e	0.03768199
70	0x3cbd7264	0.023125835
71	0x3ca6f728	0.020381525
72	0x3d5a5f88	0.053313762
73	0xbcdfc746	-0.0273167
74	0x3c1ca5de	0.00956103
75	0x3d633468	0.0554699
76	0xbc162be6	-0.00916574
77	0x3d4cac48	0.049968988
78	0xbca54db4	-0.020178653
79	0xbcd6ee26	-0.026236605
80	0x3d100b10	0.0351668
81	0x3cd8eaf4	0.026479222
82	0x3d5f0500	0.054448128
83	0x3d5d26f2	0.05399222
84	0xbd4cea97	-0.05002841
85	0x3c2e4d5c	0.010638561
86	0x3cbf065e	0.023318466
87	0x3d17f648	0.037100106
88	0x3d29658a	0.0413566
89	0xbb8e07ca	-0.0043344246
90	0x3bfd9bac	0.007739505
91	0xbd2b65e9	-0.041845236
92	0xbd0ad3a8	-0.033893257
93	0xbd17539e	-0.036944978
94	0xbd21bf4e	-0.039489083
95	0xbcf62294	-0.030045785
96	0x3d3d189e	0.046166055
97	0x3ce3bc82	0.027799848
98	0x3d3d8e3e	0.04627823
99	0x3c9c425a	0.019074608
100	0xbd24d118	-0.04023847
101	0xbd135e54	-0.03597863
102	0xbcdf8b0a	-0.027287979
103	0xbc89a1b8	-0.016800746
104	0xbbf47df0	-0.007461302
105	0x3c3a782c	0.01138119
106	0x3d52efc2	0.051498182
107	0x3c4b60fc	0.01241326
108	0x3d7af5c2	0.06126953
109	0xbd39f672	-0.045401044
110	0x3d762878	0.060097188
111	0xbb1edab0	-0.0024239235
112	0xbd54f3f0	-0.05199045
113	0x3bb520ee	0.005527607
114	0x3a9cbaae	0.001195749
115	0xbd6c28bc	-0.057656035
116	0xbd6f5526	-0.058430813
117	0x3c48118e	0.012211217
118	0x3c8763c6	0.016527068
119	0x3d64882a	0.05579392
120	0xbd47fe1e	-0.04882633
121	0xbc42bf60	-0.011886448
122	0xbcdaadb8	-0.026694164
123	0xbbaea056	-0.005329172
124	0x3cc447b2	0.023959968
125	0xbce99a56	-0.028515976
126	0x3d077b3e	0.033076517
127	0x3d1fa3c8	0.038974553
128	0xbc050106	-0.00811792
129	0xbd6af038	-0.057357997
130	0xbd3eabb4	-0.046550468
131	0xbd3768c4	-0.044777647
132	0xbc3700f8	-0.011169665
133	0xbd53b6e6	-0.051688097
134	0xbd688f6e	-0.05677741
135	0x3d746862	0.05966986
136	0x3d08af20	0.033370137
137	0xbb37e712	-0.0028061313
138	0x3cb8f1d6	0.022576254
139	0x3d2983ea	0.04138557
140	0xbce60616	-0.028079074
141	0xbcd05762	-0.025432292
142	0x3d7bf988	0.06151727
143	0xbd04462c	-0.032293484
144	0x3c8d2dce	0.017233755
145	0x3d7fa9e2	0.062417872
146	0x3c947fde	0.018127378
147	0x3c088e8c	0.008334767
148	0x3caebf3e	0.021331426
149	0xbd265db4	-0.040616706
150	0x3d4f9bc0	0.050685644
151	0x3cc55c1c	0.024091773
152	0xbbd22ce4	-0.006414043
153	0xbc5ab288	-0.013348229
154	0xbd7accce	-0.061230473
155	0x3d3ea5dc	0.046544895
156	0xbce0b5bf	-0.027430413
157	0x3d505d74	0.050870374
158	0x3d31b884	0.04338886
159	0x3d66920e	0.056291632
160	0x3cbf7234	0.023369886
161	0x3bed74c8	0.0072465874
162	0x3d333ef0	0.043761194
163	0x3d4ef830	0.05052966
164	0xbbdffde6	-0.006835687
165	0x3d67611a	0.056489088
166	0xbd545e6e	-0.051847868
167	0xbd248e5e	-0.040174834
168	0x3bcc445c	0.006233735
169	0xbd750704	-0.059821144
170	0x3c0600a0	0.00817886
171	0x3b8851f2	0.0041601593
172	0xbd2f877a	-0.04285381
173	0x3bc1c70e	0.0059136217
174	0xbd14ee4a	-0.036360063
175	0x3d56a78c	0.05240588
176	0xbd46ad22	-0.048504956
177	0x3bc0447c	0.005867539
178	0xbd3f639a	-0.046725847
179	0xbd79b75e	-0.06096589
180	0x3d5580d6	0.05212482
181	0x3c8c2e24	0.017111845
182	0xbd2a9b16	-0.041651808
183	0x39698812	0.00022271302
184	0xbd71e786	-0.05905869
185	0xbce6e0a8	-0.028183296
186	0xbd678d42	-0.0565312
187	0x3d7daa77	0.061930146
188	0xbd3e53fe	-0.04646682
189	0x3d4eac2a	0.050457157
190	0x3d2a32ca	0.041552342
191	0x3d341f08	0.043974906
192	0xbc7760ac	-0.015098732
193	0xbc950d00	-0.018194675
194	0x3d3cd3ee	0.04610055
195	0xbcf6c6ec	-0.03012415
196	0x3c037d8c	0.008025538
197	0x3ce7be38	0.028288946
198	0xbd7ee41c	-0.06222926
199	0x3cbfbff4	0.02340696
200	0x3d15b32c	0.036547825
201	0xbd5cb812	-0.05388648
202	0xbd19f4fe	-0.03758716
203	0xbd56a2a0	-0.052401185
204	0x3c665116	0.014057418
205	0xba8c98f8	-0.0010726741
206	0xbc57b294	-0.013165135
207	0x3cbbd6ae	0.022929516
208	0x3cb97c0c	0.022642158
209	0xbd24366c	-0.040090963
210	0xbd1db958	-0.038506836
211	0xbd262286	-0.040560268
212	0x3d1fa75a	0.03897796
213	0xbcf0f9bc	-0.029415958
214	0x3d695f44	0.056975618
215	0xbb677190	-0.0035315491
216	0x3ce4702c	0.027885519
217	0x3ae6db70	0.0017613005
218	0xbd6a2984	-0.0571685
219	0xbcabc9ae	-0.020970192
220	0xbd5c33ce	-0.053760342
221	0x3ceb9602	0.028758053
222	0xbd017310	-0.031603873
223	0xb99022de	-0.00027491798
224	0x3b1eca70	0.002422955
225	0xbd78c2b2	-0.06073255
226	0xbd7421f4	-0.059602693
227	0xbcbbbf96	-0.022918504
228	0x3d1a1e0e	0.03762632
229	0x3d3fb8b8	0.04680702
230	0x3c867728	0.01641424
231	0xbadf9846	-0.0017058931
232	0xbc34edce	-0.011043025
233	0x3ce1e5f4	0.02757547
234	0x3d749840	0.05971551
235	0x3d2dc40e	0.0424233
236	0x3d6083ee	0.054813318
237	0x3c1539fc	0.009108063
238	0xbcc66410	-0.024217635
239	0x3d68e754	0.056861237
240	0x3ce60116	0.02807669
241	0xbd402904	-0.046914116
242	0x3d527ce2	0.05138863
243	0x3c303ff8	0.010757439
244	0xbce27da2	-0.027647797
245	0xbcc7165a	-0.02430265
246	0x3c059c00	0.008154869
247	0xbd0547a6	-0.032539032
248	0x3cd94222	0.026520792
249	0xbb2c0b42	-0.0026251827
250	0xbd0a6dcc	-0.033796117
251	0x3d378e7e	0.044813626
252	0xbd34f7aa	-0.044181503
253	0x3d382204	0.044954315
254	0x3d6eff84	0.058349147
255	0x3d562e6c	0.052290365

l2.bias f4 [256]
0	0xb9df75c6	-0.00042621623
1	0xbd5f0b96	-0.05445441
2	0x3d06403a	0.032776095
3	0xbd35a38a	-0.044345416
4	0xbc09815c	-0.008392658
5	0xbd1053fa	-0.035236336
6	0xbd348597	-0.044072714
7	0xb9fae0aa	-0.00047851104
8	0x3d24c704	0.04022886
9	0xbd3bf444	-0.045887247
10	0x3d4e87e4	0.050422564
11	0xbd50f632	-0.05101604
12	0xbd0168dc	-0.031594142
13	0xbce3631e	-0.027757224
14	0x3d05d784	0.032676235
15	0x3d6caa16	0.057779394
16	0x38716d7c	5.7560843e-05
17	0xbba25a06	-0.0049545793
18	0x3d36e9c0	0.044656515
19	0x3c2d6c84	0.010584954
20	0xbc3b3fae	-0.011428757
21	0xbc8a5cba	-0.016889919
22	0x3b4963c8	0.003072964
23	0xbcc6ae20	-0.024252951
24	0xbacf0dd0	-0.0015796963
25	0xbd412df0	-0.04716295
26	0xbc066fe0	-0.008205384
27	0xbcd5190c	-0.02601292
28	0x3d6e5e24	0.05819525
29	0x3c372318	0.011177801
30	0x3c58a124	0.013222013
31	0xbd6b6c0c	-0.05747609
32	0xbbc0d67e	-0.0058849445
33	0xbcf4af7a	-0.02986883
34	0x3d042e1a	0.03227053
35	0x3c2a1b78	0.010382526
36	0x3d069f44	0.03286673
37	0x3d10cc34	0.035350993
38	0x3c9d7202	0.019219402
39	0xbd1c565e	-0.038168304
40	0xbce55ec6	-0.027999293
41	0x3c5cb0da	0.013469899
42	0x3d4c0dba	0.04981778
43	0xbd55c4cc	-0.052189633
44	0x3d1a2fe4	0.03764333
45	0x3c17b5f0	0.009259686
46	0xbd4e5a08	-0.05037883
47	0x3cc0e8a6	0.023548435
48	0xbd531ad8	-0.051539272
49	0x3b949344	0.004534157
50	0x3c48b178	0.012249343
51	0x3d2197f8	0.03945157
52	0xbccde672	-0.025134299
53	0xbcb8e3ee	-0.022569623
54	0x3d11623a	0.035494067
55	0x3d423d10	0.047421515
56	0xbc99462e	-0.018710222
57	0xbd620d08	-0.05518821
58	0x3cdd88c2	0.02704275
59	0x3cc22bf2	0.023702595
60	0x3d685fbd	0.05673193
61	0xbd42188e	-0.0473867
62	0x3d2430c0	0.040085554
63	0xbc211254	-0.00983103
64	0x3d4f3212	0.05058486
65	0x3cb76a70	0.02238962
66	0x3c305990	0.010763541
67	0x3ce9b9a6	0.028530907
68	0xbcdd9bb2	-0.02705178
69	0x3d59dbf6	0.053188287
70	0x3d75f76e	0.06005042
71	0x3c7b1522	0.015324863
72	0xbd722816	-0.05912026
73	0x3d52a474	0.051426366
74	0xbbeb06a4	-0.0071724225
75	0x3d3a5cf0	0.04549879
76	0x3d6d7b8e	0.05797916
77	0x3c42e130	0.011894509
78	0x3d6f01cc	0.058351323
79	0xbc0c9400	-0.008580208
80	0xbc4db416	-0.012555143
81	0xbd5616ce	-0.052267842
82	0x3d6704f8	0.056401223
83	0xbceee332	-0.02916107
84	0x3b7afeaa	0.0038298764
85	0xbcac688e	-0.02104595
86	0xbc00c8e2	-0.007860394
87	0xba8336ec	-0.0010010875
88	0xbd7d1dbe	-0.061795942
89	0xbd21f166	-0.039536856
90	0x3c86f6d2	0.016475115
91	0xbd560a89	-0.05225614
92	0xbcfa5db0	-0.030562252
93	0x3c91a038	0.017776594
94	0xbcd62cda	-0.026144434
95	0xbd54a6bc	-0.051916823
96	0xbd68523d	-0.056719054
97	0x3cd8f6b8	0.026484832
98	0x3b0b3bd6	0.0021245382
99	0x3d725bbe	0.059169523
100	0x3d724fd0	0.059158146
101	0x3c1352c2	0.008991899
102	0xbbc0a64c	-0.005879199
103	0x3d2a3ca2	0.04156173
104	0xbd49b5d0	-0.049245656
105	0xbc025a5c	-0.007956114
106	0xbcea99dc	-0.028637819
107	0x3b54ca98	0.0032469388
108	0xbd79b656	-0.060964905
109	0x3d164380	0.036685467
110	0x3c8f0790	0.01745966
111	0xbd4314e4	-0.047627345
112	0x3b6cec04	0.0036151418
113	0x3d53c06e	0.051697187
114	0xbd0900a4	-0.033447877
115	0xbab8ad52	-0.0014089739
116	0xbc59e76e	-0.013299806
117	0xbc2f8aae	-0.010714216
118	0xbcecf8c0	-0.028927207
119	0xbc8266a8	-0.015918091
120	0xbcf374d4	-0.029718794
121	0x3d6f0c90	0.05836159
122	0xbd27968a	-0.04091505
123	0xbd0cabc0	-0.03434348
124	0x3d249b2a	0.04018704
125	0xbd6d1eac	-0.05789058
126	0x3d631128	0.055436283
127	0x3ab7c2d2	0.0014019853
128	0xbd7c883c	-0.06165336
129	0xbd4da012	-0.050201483
130	0x3d419756	0.047263466
131	0x3c661706	0.014043575
132	0x3cbc1196	0.022957604
133	0x3d21ee2a	0.03953377
134	0x3c186598	0.009301566
135	0xbd0ac62c	-0.033880398
136	0x3d0b2f96	0.03398093
137	0xbd1e5f84	-0.03866531
138	0xbd2aa884	-0.041664615
139	0x3c8cfaea	0.017209489
140	0xbd1eb578	-0.03874728
141	0xbd642d20	-0.055707097
142	0x3d65f2c0	0.056139708
143	0x3d765c36	0.060146533
144	0x3d255205	0.040361423
145	0x3c1027ee	0.0087985825
146	0x3c91599e	0.017742928
147	0x3ba8d72e	0.0051526045
148	0xbc19fa7a	-0.009398097
149	0x3c8a0fda	0.016853262
150	0x3d67a52e	0.056554012
151	0xbcbd11e8	-0.023079827
152	0xbd61db4c	-0.05514078
153	0x3d63ac78	0.0555844
154	0x3c80c0b9	0.015716897
155	0x3d5876a2	0.052847512
156	0xbd4f9fe2	-0.050689586
157	0x3d4f4f32	0.050612636
158	0x3d055e38	0.032560557
159	0xbd2e2646	-0.04251697
160	0xbc4ef590	-0.012631789
161	0xbcdde760	-0.027087867
162	0x3ca49054	0.020088352
163	0xbcc5ba88	-0.024136797
164	0x3d04445c	0.032291755
165	0xbd7470aa	-0.059677757
166	0xbd36b3a6	-0.04460492
167	0xbc8a62c6	-0.016892802
168	0xbc88f478	-0.016718134
169	0x3d72a8ee	0.059243135
170	0x3d46b210	0.048509657
171	0x3d16eada	0.036845066
172	0x3c7b726a	0.015347103
173	0x3cac34ca	0.021021266
174	0x3c86507c	0.0163958
175	0x3d38a53a	0.045079447
176	0x3c39c6b4	0.011338878
177	0xbcfba8fa	-0.030720223
178	0xbd268754	-0.040656403
179	0xbd775c92	-0.060391016
180	0x3d6d740e	0.057972006
181	0xbd3bdea0	-0.04586661
182	0x3d15c62c	0.036565945
183	0x3d59c960	0.05317056
184	0xbd1455f2	-0.036214776
185	0x3d6f5c96	0.058437906
186	0x3bdd0ac2	0.006745667
187	0x3d7eabb6	0.062175475
188	0x3d70ba72	0.058771558
189	0xbd61d76a	-0.055137075
190	0xbc4a4bba	-0.012347156
191	0xbd37b1d6	-0.044847332
192	0xbcdfe162	-0.02732915
193	0x3d3ca57e	0.046056263
194	0xbd5d7758	-0.054068893
195	0xbd238cee	-0.039929323
196	0xbcd7dfa0	-0.02635175
197	0xbd301cb8	-0.04299614
198	0xbd78a1c6	-0.060701154
199	0x3d3563e6	0.044284724
200	0xbd7c54f0	-0.06160444
201	0x3ccbc88c	0.024875902
202	0x3d68e7aa	0.056861557
203	0xbd212b90	-0.039348185
204	0xbb4eec10	-0.003157381
205	0xbca96a5a	-0.020680595
206	0xbd130754	-0.03589566
207	0xbb57021a	-0.003280765
208	0x3d5004be	0.050785773
209	0xbcb70b48	-0.022344247
210	0xbd4c5faa	-0.04989592
211	0xbca44ac8	-0.02005519
212	0xbc72fd6f	-0.014830931
213	0x3d018f38	0.031630725
214	0xbd10b37c	-0.03532742
215	0xbc93fe66	-0.018065643
216	0x3d09301e	0.033493154
217	0x3d5e4a50	0.05427009
218	0xbd3cc6ea	-0.046088137
219	0xbd6e8c0c	-0.058239028
220	0xbcd6db06	-0.026227485
221	0x3c4a903a	0.012363488
222	0x3d2e3992	0.042535372
223	0x3d5807fc	0.05274199
224	0xbd546238	-0.05185148
225	0xbc0ede0c	-0.008719932
226	0x3d50cda4	0.050977364
227	0x3d788fd8	0.060684055
228	0xbd5272ee	-0.051379137
229	0xbc4f4168	-0.012649871
230	0xbd78c688	-0.06073621
231	0x3d03487e	0.032051556
232	0xbd62cda2	-0.055371888
233	0x3a01cd0a	0.00049515127
234	0xbd60b85c	-0.05486332
235	0x3d51abf8	0.051189393
236	0xbbaa38e0	-0.0051947683
237	0xbd3f76dc	-0.046744213
238	0xbcfcec04	-0.03087426
239	0x3c1e2568	0.009652473
240	0x39bce578	0.00036029122
241	0xbc19fbc2	-0.009398403
242	0xbc93184a	-0.017955918
243	0x3d5ece5a	0.05439601
244	0xbd5860e4	-0.052826777
245	0xbbd49378	-0.006487306
246	0xbd262976	-0.040566884
247	0xbd5084fe	-0.05090808
248	0x3c865b84	0.01640106
249	0xba7e9a6e	-0.0009712343
250	0xbcd81e70	-0.026381701
251	0xbd06f948	-0.032952577
252	0xbc7dc16e	-0.015488012
253	0x3d17a42e	0.03702181
254	0x3ca3ec28	0.020010069
255	0x3d0644d6	0.03278049

l3.weight f4 [1, 256]
0	0xbc3b4886	-0.011430865
1	0x3d62e576	0.055394612
2	0x3b999d3a	0.0046879323
3	0xbd5aa6f0	-0.05338186
4	0xbc8ce604	-0.017199524
5	0x3d5508a6	0.0520102
6	0xbbe63cce	-0.0070262915
7	0x3d0df58e	0.034658007
8	0x3d2f0f50	0.042739213
9	0xbd38fa7e	-0.045160763
10	0x3d3e5a38	0.046472758
11	0xbb9b347c	-0.0047364812
12	0xbc393414	-0.01130392
13	0xbc686202	-0.014183523
14	0x3cbe18c6	0.023205172
15	0xbca00ede	-0.01953834
16	0x3b925a40	0.004466325
17	0xbd7e1504	-0.06203176
18	0x3d518219	0.05114946
19	0xbd747968	-0.059686095
20	0x3c8f4a04	0.017491348
21	0x3caff9e9	0.021481471
22	0x3af8ea26	0.001899068
23	0xbbd3cbe6	-0.0064635156
24	0xbd3a64bc	-0.045506224
25	0xbca65c3e	-0.020307656
26	0xbd1e4b28	-0.038645893
27	0x3c613c98	0.013747357
28	0xbbdd3b32	-0.0067514414
29	0xbb137362	-0.0022499193
30	0xbd7e7854	-0.062126473
31	0xbc76a6ec	-0.015054446
32	0xbd1a11a6	-0.037614487
33	0xbd3baa6e	-0.04581683
34	0xbcfa37fc	-0.030544274
35	0xbd1d56e2	-0.038412936
36	0x3cfd2ec8	0.030906096
37	0xbcdf7d0a	-0.027281303
38	0x3c898ae8	0.016789868
39	0x3d416526	0.047215603
40	0xbb91f190	-0.0044538453
41	0x3d2c91a0	0.042131066
42	0x3c0857b8	0.008321695
43	0x3c34f7ce	0.011045409
44	0xbcf552fa	-0.029946793
45	0xbb578e79	-0.0032891317
46	0xbc5792f8	-0.013157599
47	0xbd2abc84	-0.04168369
48	0xbd1d65c6	-0.038427137
49	0x3d40c432	0.047062106
50	0xbd3e3614	-0.04643829
51	0xbd1eceae	-0.038771324
52	0x3d2ad934	0.041711047
53	0xbd4ba23e	-0.049715273
54	0xbaa81c5c	-0.0012825835
55	0x3d68e7d0	0.0568617
56	0xbd7d22f0	-0.061800897
57	0xbd0dac8a	-0.034588374
58	0xbc345b8c	-0.011008155
59	0x3d298e06	0.04139521
60	0x3a214f94	0.00061535207
61	0xbd57e23a	-0.05270598
62	0xbca3a2c6	-0.019975077
63	0x3d006198	0.031343073
64	0xbd7c4bde	-0.06159579
65	0x3d1d0db2	0.03834314
66	0xbd2a8dcc	-0.041639134
67	0x3d740798	0.059577554
68	0x3b1948ea	0.0023389407
69	0xba61e5a8	-0.00086172903
70	0x3d215a7c	0.039392933
71	0x3c1a329a	0.009411478
72	0x3cfeaea2	0.03108913
73	0xbd603366	-0.054736517
74	0xbd76e99a	-0.060281374
75	0x3c87579a	0.016521264
76	0xbcd88c5c	-0.026434116
77	0xbcf0b6cc	-0.02938404
78	0xbc74ded2	-0.014945703
79	0x3d392868	0.04520455
80	0x3b494708	0.0030712504
81	0xbc207ab2	-0.009794878
82	0x3d1fc38a	0.03900484
83	0x3d1950de	0.037430637
84	0x3d73a148	0.05947998
85	0x3d217604	0.03941919
86	0xbd21e4ec	-0.039524958
87	0x3d3a65ac	0.045507118
88	0xbccde76e	-0.025134768
89	0x3d10f8dc	0.03539358
90	0x3d349f60	0.044097304
91	0xbcd2b9d4	-0.025723375
92	0xbcf16158	-0.029465362
93	0xbc63d344	-0.01390535
94	0xbc750ca2	-0.014956625
95	0xbcd73eaa	-0.026274998
96	0xbcbf4cec	-0.023352109
97	0xb93737f0	-0.00017473078
98	0xbd0d7780	-0.034537792
99	0x3d354984	0.044259563
100	0x3cf09f74	0.029372908
101	0xbd01a9cc	-0.03165607
102	0x3c2bc222	0.010483297
103	0xbd6790dc	-0.056534633
104	0x3d57756a	0.05260221
105	0x3c0b3826	0.008497274
106	0xbb62f30a	-0.0034629726
107	0xbcb1a8da	-0.02168696
108	0x3d703bec	0.058650896
109	0xbcc037ec	-0.023464166
110	0xbd469444	-0.04848124
111	0xbd36ba0a	-0.044611014
112	0xbd38bec2	-0.045103796
113	0x3d6d5e7c	0.057951435
114	0xbd2a770c	-0.04161744
115	0xbd13ee38	-0.036115855
116	0xbd6642e4	-0.056216136
117	0x3cfddb52	0.03098837
118	0x3cab4c78	0.020910487
119	0x3ceb932e	0.028756704
120	0x3d17ef14	0.037093237
121	0xbc0b0c3e	-0.0084868055
122	0xbd640c42	-0.055675752
123	0xbc81f75a	-0.015865017
124	0x3d73956c	0.05946867
125	0x3ccca8f4	0.024982907
126	0xbd6a35f0	-0.057180345
127	0xba711e7c	-0.0009197963
128	0xbd718218	-0.058961958
129	0xbc5fa886	-0.013651019
130	0xbc2d4d3c	-0.010577496
131	0x3d4f1de8	0.05056563
132	0xbd593616	-0.053030096
133	0x3d590040	0.052978754
134	0x3d59bd18	0.05315885
135	0x3c87c2da	0.016572405
136	0x3c1afb2c	0.009459298
137	0x3cc1f282	0.023675207
138	0xbd05875e	-0.0325998
139	0xbaee3338	-0.0018173223
140	0xbc252af8	-0.010081045
141	0xbd6e84d0	-0.05823213
142	0xbd3a9616	-0.04555329
143	0xbd0249ec	-0.03180878
144	0x3cb9349c	0.022608094
145	0x3cb3cc18	0.021947905
146	0xbc4e89a8	-0.012606062
147	0xbd4f55d2	-0.050618954
148	0x3c8361e8	0.016037896
149	0x3d3a9424	0.045551434
150	0x3d13a6ea	0.036047854
151	0xbd51b594	-0.051198557
152	0x3d379dab	0.0448281
153	0x3d54c444	0.051944986
154	0xbc844f9a	-0.016151238
155	0xbd400e78	-0.0468888
156	0xbd445512	-0.047932692
157	0xbd4bf5ec	-0.049795076
158	0x3d77e26e	0.060518675
159	0xbc5d376a	-0.013501981
160	0xbd4a610e	-0.049408965
161	0x3d33fb96	0.043941103
162	0xbd3f21f4	-0.04666324
163	0x3ab5a70e	0.001385899
164	0xbbfa5328	-0.0076393075
165	0x3d408b24	0.047007695
166	0x3b9a333a	0.0047058137
167	0x3d5b8a2c	0.053598568
168	0xbd14c2e2	-0.036318667
169	0xbd3a7c06	-0.045528434
170	0x3d09a8a2	0.033608086
171	0x3d559e02	0.05215264
172	0x3cf4c76a	0.029880244
173	0x3d117656	0.035513245
174	0x3d1b7e66	0.03796234
175	0xbca43204	-0.02004338
176	0xbd6b418c	-0.057435557
177	0x3d2aa2a4	0.041659012
178	0xbd3a56f8	-0.045493096
179	0x3d70e830	0.05881518
180	0xbd4d5944	-0.05013396
181	0x3c8f3464	0.017481036
182	0xbcfb7452	-0.030695114
183	0x3bdca502	0.0067335377
184	0xbd43b04c	-0.04777555
185	0xbb94f144	-0.0045453627
186	0x3c13ca02	0.00902033
187	0xbd3d77fe	-0.04625701
188	0x3c4fc6a8	0.012681641
189	0xbc720dc6	-0.014773792
190	0x3d415e20	0.047208905
191	0x3a468fc4	0.00075745233
192	0x3bcf6c60	0.006330058
193	0x3b99628a	0.004680936
194	0xbc75482a	-0.014970819
195	0x3d58084c	0.052742288
196	0xbce85430	-0.028360456
197	0x3d6b5e15	0.05746277
198	0xbd779c75	-0.060451943
199	0xbca84b64	-0.020543762
200	0x3d547eee	0.051878862
201	0x3d0ffb5c	0.035151824
202	0xbd57ad90	-0.052655756
203	0xbb8b4526	-0.0042501865
204	0xbd61146c	-0.054951116
205	0xbd5cd10a	-0.053910293
206	0x3ba16084	0.0049248356
207	0x3d4bdaf2	0.04976935
208	0x3cf2b012	0.029624972
209	0x3cc2f050	0.02379623
210	0xbc4cc71c	-0.012498643
211	0x3c416f46	0.011806315
212	0x3d7ad9dc	0.061242923
213	0x3c7483a1	0.014923961
214	0xbd3a1afe	-0.045435898
215	0x3d5ba5f0	0.053625047
216	0x3cec69fe	0.028859135
217	0xbca25eca	-0.01982059
218	0x3ca7f5a8	0.02050288
219	0x3c5cf5a2	0.013486298
220	0xbd224b48	-0.039622575
221	0x3d0adc4c	0.033901498
222	0x3ce03766	0.027370166
223	0xbd57c51c	-0.052678213
224	0xbd4ac8e6	-0.049507998
225	0xbcb4cb82	-0.022069696
226	0xbcf89fba	-0.030349601
227	0xbd5b9aec	-0.053614542
228	0x3d02a514	0.031895712
229	0x3d788302	0.060671814
230	0xbd644b44	-0.05573584
231	0x3d291cbc	0.04128717
232	0xbcdb3830	-0.02676019
233	0xbbf014bc	-0.0073266905
234	0xbd0da2cc	-0.034579083
235	0xbc068778	-0.008211009
236	0xbc6d5710	-0.014486089
237	0x3a9a71ea	0.0011783217
238	0x3d7a2e42	0.06107927
239	0x3ced39f4	0.028958298
240	0x3d71369c	0.05888997
241	0x3a9c716e	0.001193566
242	0xbd612296	-0.054964624
243	0xbcfe891e	-0.031071242
244	0xbc7c844c	-0.015412401
245	0x3c1589ec	0.009127121
246	0xbc4ad3da	-0.012379611
247	0x3d03421c	0.03204547
248	0x3d0ca614	0.034338072
249	0xba39d334	-0.00070886617
250	0x3d4c5806	0.049888633
251	0xbcda9dbf	-0.026686547
252	0xbc21797c	-0.009855624
253	0x3d2ca8a8	0.04215303
254	0x3d652e60	0.05595243
255	0xbcb65ec4	-0.022261985
