embeddings_classifier_model/emb_classifier_v1.pth (torch, 793431 bytes, 6 tensors)

l1.weight f4 [256, 512]
0	0xbcfe0a40	-0.031010747
1	0xbcb2ffdf	-0.021850524
2	0x3bd1a321	0.0063976203
3	0x3c7bf672	0.015378581
4	0xbb9ec458	-0.0048451833
5	0xbd75a5df	-0.05997264
6	0xbc4ee495	-0.01262774
7	0x3d347bf3	0.04406352
8	0x3cff3c6b	0.03115674
9	0x3c490de7	0.012271381
10	0x3c4993a9	0.012303271
11	0x3d707157	0.05870184
12	0x3d4fb228	0.050707012
13	0x3c66068c	0.014039647
14	0xbc97208d	-0.018448139
15	0x3d4f29b8	0.050576895
16	0xbc3c2398	-0.011483096
17	0xbcedb5de	-0.029017385
18	0x3d397bf4	0.045284227
19	0x3c1a6fa1	0.0094260285
20	0x3cf47c04	0.029844292
21	0xbb12505b	-0.0022325728
22	0x3c15d479	0.009144896
23	0xbccf3824	-0.025295325
24	0x3c139058	0.009006582
25	0xbd821e2a	-0.063534096
26	0xbd8ba8b9	-0.06819291
27	0xbd3f50df	-0.046707984
28	0x3b068902	0.002052844
29	0xbba3d4ed	-0.004999748
30	0x3c2c59d4	0.010519464
31	0xbcb4d28e	-0.022073057
32	0xbd0d70af	-0.03453129
33	0x3c3e4608	0.011613376
34	0x3d33cb4e	0.04389506
35	0xbd004ee3	-0.031325232
36	0xbcc06ec6	-0.02349032
37	0x3c61dde7	0.013785816
38	0xbd16db6a	-0.036830343
39	0x3c36c621	0.011155636
40	0x3d3f80dd	0.046753753
41	0x3cc9adb0	0.024618953
42	0xbcc81d29	-0.024427967
43	0xbc4a6bef	-0.012354835
44	0xbca0af40	-0.019614816
45	0xb97713b3	-0.00023563094
46	0xbd886558	-0.06659955
47	0x3d5ad7e8	0.05342856
48	0xbd913d6c	-0.070917934
49	0x3da48ff0	0.080352664
50	0xbcb7f20e	-0.022454288
51	0xbd289021	-0.041153077
52	0x3b10a791	0.0022072534
53	0x3d859d59	0.06524152
54	0x3b01ee75	0.001982597
55	0xbcba3720	-0.022731364
56	0x3c785fb5	0.015159537
57	0x3d22e71c	0.039771184
58	0xbbd4ca27	-0.006493825
59	0x3d30e2fa	0.04318521
60	0xbbace7f9	-0.0052766767
61	0x3c6a36d7	0.014295301
62	0xbd578f26	-0.05262675
63	0x3b369c6d	0.0027864233
64	0xbd383e0f	-0.04498106
65	0xbce11fd3	-0.027480995
66	0x3c7ba824	0.015359912
67	0x3d88b67c	0.06675431
68	0x3d11b947	0.035577085
69	0xbd37b7f9	-0.044853184
70	0x3d6d4c26	0.05793395
71	0x3d307010	0.04307562
72	0xbd3b0cb7	-0.045666423
73	0xbd05321d	-0.032518495
74	0xbc58a1af	-0.013222142
75	0xb9dd6022	-0.0004222403
76	0xbd40bba8	-0.047053963
77	0xbb1d17e4	-0.0023970539
78	0xbcc48016	-0.023986857
79	0x39a825cd	0.0003207162
80	0x3d1afe23	0.03784002
81	0x39d9f838	0.00041574403
82	0x3b818e0c	0.003953701
83	0x3d79fbb2	0.06103105
84	0x3bc891ab	0.0061208806
85	0xbd8dcdd6	-0.06924026
86	0x3d4dcc27	0.050243523
87	0x3cd8db13	0.02647165
88	0x3ce48b6c	0.027898513
89	0x3d7a5404	0.06111528
90	0x3dba618b	0.09100636
91	0x3d86b596	0.065776035
92	0xbd08834b	-0.033328336
93	0xbc37ac0a	-0.011210451
94	0x3cf44bc7	0.02982129
95	0x3d51b95c	0.051202163
96	0x3da82132	0.082094565
97	0xbcc59ee0	-0.024123609
98	0xbcdd4db9	-0.0270146
99	0x3d92e54d	0.07172642
100	0x3d2da6c8	0.042395383
101	0xbd5732db	-0.052538734
102	0xbcaffa97	-0.021481795
103	0x3d7774b1	0.06041402
104	0x3d901da7	0.07036906
105	0x3aff0ab7	0.0019458149
106	0x3b905b6a	0.0044054287
107	0x3d77052a	0.06030766
108	0x3cadcca2	0.02121574
109	0x3d8e198b	0.06938466
110	0x3d4c7deb	0.049924772
111	0x3d1384b4	0.036015227
112	0xbd5becb0	-0.05369252
113	0xbd43133c	-0.047625765
114	0xbcd210bd	-0.025642747
115	0xbd43f8e4	-0.047844782
116	0x3b51b056	0.0031995974
117	0x3d322e3a	0.043501116
118	0xbd631e87	-0.055449035
119	0x3a1a721d	0.0005891638
120	0x3d8db058	0.069184005
121	0xbcae7ea4	-0.021300621
122	0xbcc78780	-0.024356604
123	0xbd679346	-0.056536935
124	0xbd7f399f	-0.06231081
125	0x3d9a3d02	0.075311676
126	0xbd4a2646	-0.049352907
127	0xbc9fff44	-0.0195309
128	0xbca3749a	-0.01995306
129	0x3c8aed87	0.016958965
130	0xbd8ec3d0	-0.06970942
131	0x3d86c42d	0.06580386
132	0x3d3c828d	0.04602294
133	0xbcebcd66	-0.028784465
134	0xbc95f8cd	-0.018307114
135	0x3d8af78a	0.067854956
136	0x3c911f0b	0.017714998
137	0x3d9ec4f1	0.07752407
138	0x3d2fec4d	0.042949963
139	0x3cacfa5b	0.021115473
140	0xbdac411e	-0.084108576
141	0xbc29c76e	-0.010362489
142	0x3d24b3c5	0.040210504
143	0x3d41391f	0.047173616
144	0x3c94932c	0.018136583
145	0xba2b42de	-0.00065330963
146	0xbd177387	-0.03697541
147	0x3d9471e9	0.07248289
148	0x3c8dece1	0.017324867
149	0xbda8dd61	-0.0824535
150	0x3ba8a1f6	0.0051462604
151	0xbd402a47	-0.04691532
152	0x3cdac9cc	0.026707552
153	0xbd9f27e2	-0.07771279
154	0x3c8735c7	0.016505135
155	0x3ccf7054	0.025322117
156	0x3d4042ab	0.04693858
157	0x3d612ec1	0.05497623
158	0xbd37d4f8	-0.044880837
159	0x3d236fea	0.03990165
160	0x3d007e3e	0.031370394
161	0x3c35f677	0.011106125
162	0x3cb6f1ad	0.022332037
163	0x3cae6a7d	0.021291012
164	0x3c925f03	0.01786757
165	0x3c35707b	0.011074181
166	0xbd51cf1d	-0.05122291
167	0x3c8d4a9d	0.017247492
168	0xbd54120f	-0.051775035
169	0x3c3a7252	0.011379795
170	0x3cbb12a3	0.022836035
171	0xbdac3528	-0.08408576
172	0x3d60f0bf	0.054917093
173	0xbacb4bc9	-0.0015510257
174	0x3c3b683a	0.011438424
175	0xbd127061	-0.035751704
176	0xbd523405	-0.05131914
177	0xbd9a4d28	-0.07534248
178	0x3ba35bb7	0.0049852985
179	0x3bf0b77b	0.0073460913
180	0xbcda65e8	-0.02665992
181	0x3cb30995	0.021855155
182	0xbd55555f	-0.05208337
183	0x3d79e7c8	0.06101206
184	0x3b609771	0.0034269954
185	0x3d89410c	0.0670186
186	0x3d5abd9d	0.053403486
187	0xbd1ee903	-0.038796436
188	0xbd06dbdc	-0.032924518
189	0xbd2d3f9e	-0.042297
190	0x3bf87652	0.0075824643
191	0xbd479e66	-0.048735045
192	0x3d1d60a3	0.038422238
193	0xbcaaba2b	-0.020840725
194	0x3d9e5bb6	0.07732336
195	0x3b1cd100	0.0023928285
196	0xbcdf9f25	-0.027297566
197	0x3d3623dd	0.044467796
198	0xbd0b336f	-0.033984598
199	0xbc1f2773	-0.009713995
200	0x3cf161fc	0.029465668
201	0xbb940c7e	-0.0045180907
202	0xbc157a01	-0.009123326
203	0xbd8602fa	-0.065435365
204	0xbcd35651	-0.025797995
205	0x3cf76f18	0.03020434
206	0x3d637b3f	0.05553746
207	0x3cb4617c	0.02201914
208	0x3bb66974	0.00556677
209	0xbd7134df	-0.058888312
210	0xbd917456	-0.071022674
211	0xbcc7c9b8	-0.02438818
212	0xbc403160	-0.011730522
213	0xba93f206	-0.0011287339
214	0x3d6f2d39	0.058392737
215	0xbb180fd5	-0.0023202796
216	0x3d2500e2	0.040284045
217	0x3cc7265e	0.024310287
218	0xbaa4edf7	-0.0012583126
219	0x3bbf100c	0.0058307704
220	0xbcf5b4cd	-0.02999344
221	0x3cb2ad57	0.02181117
222	0x3c066b51	0.008204297
223	0xbd2e9a8c	-0.042627856
224	0xb8604f1a	-5.347943e-05
225	0x3c3c65d8	0.011498891
226	0xbcf063dc	-0.029344492
227	0x3cc09cee	0.02351233
228	0xbd8c1411	-0.06839765
229	0x3b66c4d3	0.0035212531
230	0xbcc7fac7	-0.024411572
231	0x3bf944ac	0.0076070633
232	0xbd26e4bf	-0.040745493
233	0xba86f279	-0.0010295651
234	0x3ca20b07	0.019780649
235	0x3d5d5940	0.054040194
236	0x3c03ba83	0.008040073
237	0xbca4425a	-0.02005117
238	0xbd00fae1	-0.031489257
239	0xbc494c49	-0.012286254
240	0xbd49dd06	-0.04928305
241	0x3d4f7872	0.050651975
242	0x3d3c06bc	0.04590486
243	0x3d51e60d	0.051244784
244	0x3cd83505	0.02639247
245	0x3cf1b344	0.029504426
246	0xbb36f528	-0.002791712
247	0x3ce64592	0.028109346
248	0x3d6b5bd4	0.05746062
249	0xbb114c5a	-0.0022170753
250	0xbcaea59d	-0.021319205
251	0xbd711cfc	-0.058865532
252	0x3d18ec52	0.037334748
253	0xbc6b3811	-0.014356629
254	0x3bdbf86d	0.0067129643
255	0x3d91b381	0.07114316

l1.bias f4 [256]
0	0x3d1f6506	0.038914703
1	0x3d84ac87	0.064782195
2	0x3d413200	0.047166824
3	0xbc2d6082	-0.010582091
4	0x3bcb7bf4	0.0062098447
5	0xbc9a8fac	-0.018867336
6	0x3d098062	0.0335697
7	0xbcee6a5a	-0.029103447
8	0x3d4cff7b	0.050048333
9	0xbc90c026	-0.017669749
10	0x3d39e1ff	0.045381542
11	0x3d247c71	0.04015774
12	0x3d5eb642	0.054373033
13	0x3d053a1e	0.032526128
14	0x3baa0f48	0.00518981
15	0x3d67383a	0.056450106
16	0x3d1be66a	0.038061537
17	0xbcc9c585	-0.024630317
18	0x3cc50921	0.024052205
19	0x3d54d020	0.051956296
20	0x3c999703	0.018748766
21	0xbbf7cc6c	-0.007562211
22	0x3d53f46d	0.051746774
23	0xbc8c8936	-0.017155271
24	0x3d15f05b	0.036606174
25	0x3d3c8477	0.046024766
26	0xbd3bee75	-0.045881707
27	0x3da1ed71	0.079066165
28	0x3d35e284	0.044405475
29	0x3d3eb3ed	0.04655831
30	0x3c85e650	0.016345173
31	0xbcd441f2	-0.025910351
32	0xbcb0e427	-0.021593167
33	0xbb4149b6	-0.0029493398
34	0xbca0395f	-0.019558607
35	0x3dac486d	0.084122516
36	0x3d4ade66	0.049528502
37	0x3bc7134c	0.0060752984
38	0xbbb47670	-0.005507283
39	0x3b95854d	0.00456301
40	0x3d6fb6af	0.05852383
41	0x3d0fd1d9	0.035112236
42	0xbcdfac4a	-0.027303834
43	0x3d9e0698	0.077161014
44	0x3ce78043	0.028259402
45	0xbba5efa4	-0.005063968
46	0x3d6b0032	0.057373233
47	0x3cd73f67	0.02627535
48	0x3d2e01cf	0.042482194
49	0xbd235630	-0.039877117
50	0x3d2eb652	0.042654343
51	0x3a0e4262	0.0005426762
52	0xbce33faa	-0.027740318
53	0x3d21e5d1	0.03952581
54	0xbcccfb67	-0.025022222
55	0xbd20331e	-0.03911125
56	0x3d8f24cc	0.0698944
57	0x3cb3ca18	0.021946952
58	0x3b9fdd53	0.004878679
59	0x3d15c3cd	0.036563683
60	0xbcbe5b2b	-0.023236832
61	0x3d4854a3	0.04890884
62	0xbcad7191	-0.021172317
63	0x3d4d06fb	0.050055485
64	0x3d947a01	0.07249833
65	0xbd29ab60	-0.0414232
66	0x3ca9f272	0.02074549
67	0x3d8fd771	0.07023514
68	0xbd02224d	-0.031770993
69	0x3d83748c	0.06418714
70	0xbccbef1d	-0.024894292
71	0xbd086cbc	-0.033306822
72	0x3d2b1c20	0.04177487
73	0x3d56a597	0.052404013
74	0x3d1ef873	0.03881116
75	0xbd3225b2	-0.04349298
76	0x3d0c60a7	0.034271862
77	0x3c9c7f75	0.019103745
78	0xbc9e1899	-0.019298838
79	0x3d29908a	0.04139761
80	0xbc6d7fb8	-0.014495783
81	0x3c34981a	0.011022592
82	0xbd0a14ca	-0.033711232
83	0xbc72b49d	-0.014813569
84	0x3d624142	0.055238016
85	0x3c86ba66	0.016446304
86	0xbd244a34	-0.040109828
87	0x3c0fdcbd	0.008780655
88	0xbcbc6af8	-0.023000225
89	0x3c7a0c65	0.015261744
90	0x3cacd31f	0.021096764
91	0xbd2617d7	-0.04055008
92	0x3d7c29ea	0.06156341
93	0x3c872d52	0.016501103
94	0x3c7bc07b	0.015365715
95	0xbc0243d2	-0.00795074
96	0x3d69c35c	0.057071075
97	0x3d172ce5	0.03690805
98	0x3d874df9	0.06606669
99	0x3cd28a68	0.025700763
100	0x3c2cec0a	0.010554323
101	0x3d8e6ee5	0.06954745
102	0x3d3e1a3b	0.046411734
103	0x3cf6d630	0.03013143
104	0x3d97bd8e	0.074092016
105	0x3d32a20c	0.04361157
106	0x3d78f84f	0.06078368
107	0xbc91c8f0	-0.01779601
108	0x3b9492ab	0.0045340857
109	0xbd207828	-0.03917709
110	0xbc9359c4	-0.01798714
111	0x3cb4415b	0.02200382
112	0x3d4f74d7	0.050648537
113	0x3c8c9aae	0.0171636
114	0xbd2ef358	-0.04271254
115	0xbd226c9d	-0.039654363
116	0x3cf14ad3	0.029454624
117	0xbcde02f2	-0.027101014
118	0x3d6b024f	0.05737525
119	0x3d5d7f40	0.054076433
120	0xbcb31476	-0.021860342
121	0x3d92bf6a	0.071654156
122	0x3ccc46de	0.024936136
123	0x3d2f8023	0.04284681
124	0x3d12adf9	0.035810445
125	0x3d2274fb	0.039662343
126	0x3cbecf5d	0.023292238
127	0x3d418c92	0.0472532
128	0xbced96fd	-0.02900266
129	0x3c255036	0.010089925
130	0x3cfd9de4	0.030959077
131	0xbcdf242f	-0.027238933
132	0xbd0e2de4	-0.034711733
133	0xbcd947a4	-0.026523419
134	0x3d4471ba	0.04796002
135	0xbc6f9418	-0.014622711
136	0x3d46301d	0.04838573
137	0xbcf01ebf	-0.029311536
138	0x3c92eadf	0.01793426
139	0x3d56e7b7	0.052467074
140	0x3d3eae0c	0.046552703
141	0x3d041077	0.032242265
142	0x3c9ac414	0.018892325
143	0x3c43561e	0.011922387
144	0x3d8e4fd3	0.06948819
145	0x3d8092b5	0.06277982
146	0x3d61d653	0.055136036
147	0xbb87e2e4	-0.0041469205
148	0xbcfd17fc	-0.030895226
149	0xbd2ee1df	-0.042695876
150	0xbcb22bac	-0.02174934
151	0xbb283088	-0.0025663693
152	0x395f9f10	0.00021326193
153	0x3b66d83b	0.0035224098
154	0xbd01a7a4	-0.031654015
155	0x3d468c17	0.048473444
156	0xbca784b3	-0.020449018
157	0x3ba01961	0.004885838
158	0x3d291024	0.04127516
159	0x3d515e13	0.051115107
160	0x3d0ca3e8	0.034336
161	0x3d6581b3	0.056031894
162	0xbd15cb18	-0.03657064
163	0xbd253c48	-0.04034069
164	0x3d8056e4	0.06266573
165	0x3d4eeb72	0.050517507
166	0x3cfd8ce3	0.03095097
167	0x3d1c2f38	0.03813097
168	0x3b179c91	0.0023134092
169	0x3d900de0	0.070338964
170	0x3d86a584	0.06574538
171	0xbcc4786d	-0.023983205
172	0xbce05075	-0.027382115
173	0x3ba770de	0.0051098904
174	0x3d10b21f	0.03532612
175	0xbd0077d4	-0.031364277
176	0x3d0bbcb3	0.034115504
177	0xbd26cdb9	-0.040723536
178	0xbc1d9951	-0.009619073
179	0xbd30bcfd	-0.043148983
180	0xbd1ba5d7	-0.037999954
181	0xbd036802	-0.03208161
182	0xbc41805c	-0.011810388
183	0x3c802207	0.015641226
184	0xbcc535be	-0.024073478
185	0x3d95844b	0.073006235
186	0x3d8019dc	0.06254932
187	0x3cf41339	0.029794322
188	0x3d3da061	0.046295527
189	0x3d32183d	0.043480147
190	0x3d477082	0.04869128
191	0x3ccbb56b	0.02486678
192	0x3c06fca1	0.008238942
193	0x3cc3b266	0.023888778
194	0x3c27a52e	0.010232253
195	0xbcbf00ed	-0.023315871
196	0xbc03c628	-0.00804285
197	0xbcff5981	-0.031170608
198	0x3c70ba26	0.014692819
199	0x3d1e73c1	0.03868461
200	0x3d8af6ae	0.06785332
201	0xbb6c83e9	-0.0036089367
202	0x3d0feb61	0.035136584
203	0x3d8d26f6	0.06892197
204	0x3d060c11	0.03272635
205	0x3bf370a7	0.0074292007
206	0x3cafccb8	0.021459922
207	0x3d2fdbc8	0.04293421
208	0x3d71da82	0.059046276
209	0x3b57fb1e	0.0032956074
210	0x3d0a0910	0.03370005
211	0x3d875e71	0.0660981
212	0x3d7ea1df	0.06216609
213	0x3ce6bbac	0.02816566
214	0x3d9619c3	0.073291324
215	0x3d0347d7	0.032050934
216	0x3c209ac6	0.009802526
217	0xbcf570e3	-0.029961055
218	0x3d01d597	0.031697836
219	0x3ca63ef0	0.020293683
220	0x3cb5b492	0.02218083
221	0xbd2fa5e6	-0.042882822
222	0xbc3f3e50	-0.011672571
223	0xbcbdad02	-0.023153786
224	0x3d43d6b1	0.047812168
225	0x3d83ac5c	0.06429359
226	0x3d16d969	0.036828432
227	0x3cbdc233	0.02316389
228	0x3d66a2a2	0.056307442
229	0x3c15fb17	0.009154103
230	0xbaa14266	-0.0012303113
231	0x3cabde0e	0.020979907
232	0x3d184d1d	0.037182916
233	0x3d502e6e	0.05082553
234	0x3cadee62	0.021231834
235	0x3d5c277f	0.053748604
236	0x3ca04e0f	0.019568471
237	0xbcb9b9c4	-0.022671588
238	0x3be0c3f5	0.0068592974
239	0x3d136291	0.035982672
240	0x3d86a09a	0.06573601
241	0xbca0cb1c	-0.0196281
242	0x3d148420	0.036258817
243	0x3d5a1d0b	0.053250354
244	0xbd0dfb4f	-0.034663495
245	0x3cfbe47a	0.030748595
246	0x3c60e809	0.0137271965
247	0x3cead710	0.028667003
248	0xbd2172ac	-0.039416
249	0x3d7003ca	0.058597364
250	0x3d8c57a0	0.06852651
251	0xbcfa9ff1	-0.030593844
252	0x3d2cd8cf	0.042198952
253	0x39c0e51d	0.00036791796
254	0xbd146c46	-0.03623607
255	0xbcb13e1c	-0.021636061

l2.weight f4 [256, 256]
0	0xbcf0cc7a	-0.029394377
1	0xbb068132	-0.0020523784
2	0xbcf6f422	-0.030145708
3	0x3cdf8938	0.02728711
4	0x3c505494	0.0127154775
5	0x3d7969a8	0.060891777
6	0xbd3ecd54	-0.046582535
7	0xbd047eac	-0.032347366
8	0xbd7b6556	-0.06137594
9	0x3cf85a40	0.030316472
10	0x3a1e9168	0.0006048889
11	0x3d323ed7	0.04351696
12	0xbd858570	-0.06519592
13	0x3c8082b0	0.015687317
14	0x3d643694	0.055716112
15	0xbc9cfb0f	-0.019162683
16	0x39ecb5eb	0.00045148967
17	0xbba81e18	-0.0051305406
18	0x3d3f8379	0.04675624
19	0x3cb5ed38	0.022207841
20	0x3d0d254c	0.034459397
21	0x3d6535a0	0.055959344
22	0xbcbde4fc	-0.023180477
23	0x39fb068c	0.00047879328
24	0xbc7ab99d	-0.015303043
25	0x3d2cde67	0.042204287
26	0xbca14028	-0.019683912
27	0xbd5f6410	-0.054538786
28	0xbccda9b5	-0.025105337
29	0xbd345df8	-0.044034928
30	0x3d672138	0.056428164
31	0x3d29f5fc	0.041494355
32	0x3d2edace	0.042689137
33	0x3c991b5d	0.018689806
34	0xbd31c5c8	-0.04340151
35	0xbd681317	-0.05665883
36	0xbd4eb586	-0.050466083
37	0x3d0f1c2e	0.034938984
38	0xbd32cb18	-0.043650717
39	0xbd77d490	-0.06050545
40	0xbd1e3e9a	-0.03863392
41	0xbcb16ca7	-0.021658255
42	0x3d46a04a	0.048492707
43	0x3d3a8459	0.045536373
44	0xbc8a56a7	-0.016887022
45	0x3b3024f0	0.0026877485
46	0x3d2bf965	0.041985888
47	0xbbc44753	-0.005989948
48	0xbd1d5a14	-0.038415983
49	0x3b547467	0.0032418014
50	0x3cd5e38c	0.02610948
51	0x3cb10208	0.021607414
52	0x3d4ed0ba	0.050492026
53	0xbcd0b0a4	-0.025474854
54	0x3c0988e8	0.008394457
55	0x3d6a1376	0.057147466
56	0xbd0ea8fe	-0.034829132
57	0xbd7a6b96	-0.06113776
58	0xbd73e1ec	-0.059541628
59	0xbd11e067	-0.035614397
60	0x3d4fe3da	0.050754406
61	0x3c4323f8	0.011910431
62	0xbbf58fbc	-0.007493941
63	0xba845082	-0.0010094794
64	0x3ba237cd	0.0049504996
65	0x3bb03310	0.005377181
66	0x3d6fa47c	0.058506474
67	0x3d2b7dd5	0.04186805
68	0xbd799706	-0.060935043
69	0xbce78f14	-0.028266467
70	0xbd228030	-0.03967303
71	0x3be62614	0.0070235822
72	0x3d4be0ed	0.049775053
73	0x3d36a05b	0.04458652
74	0x3d4338cc	0.047661588
75	0xbd069930	-0.032860935
76	0xbd526ccf	-0.0513733
77	0xbc80871e	-0.015689429
78	0x3cea80fc	0.028625958
79	0xbaed0ed0	-0.001808608
80	0xbd5de3ea	-0.054172434
81	0x3d0288cb	0.031868737
82	0xbd5f2cca	-0.054486074
83	0x3cfcfd94	0.030882634
84	0xbca5bfdc	-0.020233087
85	0xbd23fc7e	-0.040035717
86	0xbb731d00	-0.0037096143
87	0x3d5058ca	0.050865926
88	0x3c9d15f0	0.0191755
89	0x3bc4e41c	0.006008638
90	0x3d46d0ea	0.04853908
91	0x3c45e728	0.012079038
92	0x3cb8913f	0.022530196
93	0xbd137493	-0.035999846
94	0xbb59504e	-0.0033159438
95	0xbc5ef8fb	-0.013609166
96	0x3d138ca3	0.036022794
97	0xbcaf3adb	-0.02139037
98	0x3ccdf20d	0.025139833
99	0xbd656c51	-0.0560115
100	0xbc01b3b4	-0.00791638
101	0xbc81a93c	-0.015827768
102	0xbd01aff6	-0.03166195
103	0x3d2ebdbe	0.04266142
104	0xbd597663	-0.053091418
105	0x3c6201d7	0.013794384
106	0xbd0458c0	-0.0323112
107	0x3cee6b0c	0.029103778
108	0x3d208cca	0.039196767
109	0xbaccf305	-0.001563639
110	0x3c59640c	0.013268482
111	0xbca2ed76	-0.01988862
112	0xbc7cc790	-0.015428439
113	0x3d30311d	0.043015588
114	0x3b194acc	0.002339053
115	0x3d64b1a2	0.055833466
116	0xbd13c916	-0.036080442
117	0x3cef7a18	0.029233024
118	0xbd24c1a3	-0.04022373
119	0x3d1959b3	0.03743906
120	0xbccd92c0	-0.02509439
121	0x3bd1ea42	0.0064060995
122	0xbbe0dd40	-0.0068623126
123	0xbd03e428	-0.03220001
124	0xbd124e90	-0.035719454
125	0xbd7d269c	-0.0618044
126	0x3d380698	0.044928163
127	0xbc6ac424	-0.01432899
128	0x3d4854d0	0.04890901
129	0xbc420f0c	-0.011844408
130	0xbd27255d	-0.040807117
131	0xbcaf828c	-0.021424554
132	0xbd6bb766	-0.05754795
133	0x3d033f3a	0.03204272
134	0x3cf4790a	0.029842872
135	0x3b93d75c	0.004511757
136	0xbcb6bc0e	-0.022306468
137	0xbd110ca4	-0.035412446
138	0xbcd05a9c	-0.02543383
139	0xbcf7cb7e	-0.0302484
140	0xbc673780	-0.014112353
141	0x3c2278ec	0.009916525
142	0xbd317721	-0.0433265
143	0xbce3d964	-0.02781362
144	0xbb66e058	-0.0035228934
145	0xbc5e4857	-0.013567052
146	0x3c87a6c9	0.016559022
147	0x3d23ca4d	0.03998785
148	0x3ca0bc0d	0.01962092
149	0xbcd8818c	-0.02642896
150	0xbb8c1710	-0.00427521
151	0x3d7ccace	0.061716847
152	0xbd56946c	-0.05238764
153	0xbd5e3e5c	-0.05425869
154	0xbc834334	-0.016023256
155	0x3d2eefda	0.04270921
156	0x3d29d434	0.04146214
157	0xbc2d032b	-0.010559837
158	0xbd7db2a8	-0.061937958
159	0x3d301c71	0.042995874
160	0x3d0d70dd	0.034531463
161	0xbb031582	-0.0020001833
162	0x3d1c5d10	0.03817469
163	0xbcde18dc	-0.027111463
164	0xbd706e51	-0.058698956
165	0x3caebc5a	0.021330047
166	0xbd3c0e69	-0.04591218
167	0x3c822cb1	0.015890451
168	0x3c479476	0.012181392
169	0xbd4a4159	-0.049378727
170	0x3ced763e	0.028987046
171	0xba433e36	-0.000744793
172	0xbd3b5696	-0.04573687
173	0xbd509362	-0.050921805
174	0xba6f1aad	-0.00091211015
175	0xbc7272cc	-0.0147978775
176	0x3d58ca5c	0.05292736
177	0x3c10fdac	0.008849543
178	0xbc9558ac	-0.018230759
179	0xbd116e38	-0.035505503
180	0xbbad2578	-0.0052840076
181	0x3d759744	0.05995871
182	0x3c1e1788	0.009649165
183	0x3bc59ae8	0.006030429
184	0xbd71ec16	-0.05906304
185	0x3ca10f5d	0.019660646
186	0xbc43cbea	-0.011950472
187	0xbd780486	-0.06055119
188	0x3c299ce9	0.010352352
189	0x3cc09183	0.023506885
190	0xbce8ce07	-0.028418554
191	0x3c036b6b	0.008021216
192	0x3cc3de14	0.023909606
193	0x3d422752	0.04740078
194	0xbd881cf1	-0.06646145
195	0xbd78a27a	-0.060701825
196	0xbc4c7130	-0.012478158
197	0xbd1c33b0	-0.03813523
198	0x3d3560eb	0.04428188
199	0x3d320f90	0.043471873
200	0xbd409ee5	-0.047026534
201	0xbcfccd20	-0.03085953
202	0xbd83c348	-0.06433731
203	0xbd27cb68	-0.040965468
204	0x3d5cdd88	0.053922206
205	0xbc5cf05e	-0.013485042
206	0x3d172201	0.036897663
207	0xbce3e18a	-0.027817506
208	0xbad595d2	-0.001629526
209	0xbd3665d2	-0.044530697
210	0x3d3759e7	0.044763472
211	0x3aedac8c	0.0018133088
212	0xbd4cdb03	-0.050013553
213	0xbd82bf72	-0.063841715
214	0x3d5274b1	0.051380817
215	0x3cf1abc9	0.029500859
216	0x3d5884f1	0.052861158
217	0x3c3fd2a8	0.011707939
218	0x3d1d6828	0.03842941
219	0xbc115f69	-0.008872845
220	0x3a951a57	0.0011375648
221	0xbd6a840e	-0.057254843
222	0xbca1b990	-0.019741803
223	0xbd49fd58	-0.049313873
224	0x3d45db33	0.048304748
225	0xbd2b2d76	-0.0417914
226	0x3d45f7ca	0.048332013
227	0xbca4788c	-0.020077012
228	0xbc58e88b	-0.013239036
229	0x3d0095ca	0.03139285
230	0x3cb7ece4	0.022451825
231	0xbbb00e30	-0.005372785
232	0x3d25832c	0.0404083
233	0xbc3f9f0e	-0.011695636
234	0x3c7b123c	0.015324172
235	0x3ca05b04	0.01957465
236	0x3cf8701c	0.030326895
237	0x3d2c0d0a	0.042004623
238	0xbccd1ede	-0.025039133
239	0x3cdeb910	0.027187854
240	0x3d4c2c7e	0.04984712
241	0x3d01056b	0.031499308
242	0xbcb4d0b9	-0.022072183
243	0xbac9ac28	-0.001538639
244	0xbc0fb430	-0.008770987
245	0xbcbe9889	-0.023266094
246	0x3c4b092c	0.012392323
247	0x3c96093b	0.018314948
248	0xbc5166f2	-0.012780892
249	0xbd19ac7d	-0.037518013
250	0x3cd6a821	0.026203217
251	0x3c8e2de8	0.017355874
252	0xbd54c90b	-0.051949542
253	0x3d622382	0.055209644
254	0xbc638454	-0.01388653
255	0xbd0150d2	-0.031571217

l2.bias f4 [256]
0	0xbcef13a2	-0.029184166
1	0x3d59523f	0.05305695
2	0x3bc7e85b	0.006100697
3	0xbd10b5e0	-0.0353297
4	0xbce37b08	-0.027768627
5	0x3d342691	0.043982092
6	0x3cc8f193	0.024529254
7	0x3c8ff33d	0.01757204
8	0xbd1b9ec7	-0.03799322
9	0x3d8be748	0.06831223
10	0x3d9f4410	0.07776654
11	0xbd812e10	-0.06307614
12	0xbbd7c0d5	-0.0065842667
13	0x3d344adb	0.0440167
14	0xbb89defe	-0.004207491
15	0x3c841887	0.016124977
16	0x3d8549f5	0.06508247
17	0xbcc59c78	-0.024122462
18	0x3c40ee6c	0.011775594
19	0x3da3123e	0.07962464
20	0xbbcc650a	-0.0062376307
21	0x3d831713	0.064008854
22	0x3d31cd2a	0.04340855
23	0xbd3df00f	-0.046371516
24	0xbbf888e8	-0.00758468
25	0x3d98b312	0.0745603
26	0xbd6a2625	-0.057165284
27	0x3d1cc41b	0.03827296
28	0x3cef8ba0	0.029241383
29	0x3d72fd99	0.05932388
30	0xbd4a38d6	-0.04937061
31	0x3d719ad4	0.058985546
32	0xbc4d9d04	-0.0125496425
33	0x3db21a40	0.08696413
34	0x3d239e3f	0.039945837
35	0x3d45f727	0.048331406
36	0x3a9f7b7c	0.0012167539
37	0x3d9c0fe2	0.07620217
38	0xbd1eb09e	-0.038742654
39	0x3cfe1661	0.03101653
40	0xbd6286a1	-0.055304173
41	0xbcb2a6cb	-0.021808049
42	0x3d7d2a82	0.061808117
43	0x3da027b6	0.07820074
44	0xbcd6a8f3	-0.026203608
45	0xbce7aab2	-0.028279636
46	0x3ba6ac84	0.0050864834
47	0x3d706072	0.058685727
48	0x3da2a409	0.079414435
49	0x3d935762	0.07194401
50	0x3d2d7cf5	0.042355496
51	0xbc9402f3	-0.018067813
52	0xbd5115b6	-0.051046096
53	0x3d69334c	0.056933686
54	0x3d8b30ca	0.06796415
55	0x3d6c45c8	0.057683736
56	0x3d751094	0.059830263
57	0xbd88176a	-0.06645091
58	0x3d88f8ff	0.06688117
59	0x3cbb533e	0.022866841
60	0x3d417baf	0.047237094
61	0x3cfa0f9e	0.030525025
62	0x3d53a0bd	0.051666964
63	0xbcf4ed09	-0.029898183
64	0xbc85f294	-0.016351022
65	0x3bdb8252	0.006698885
66	0xbd32a74c	-0.043616578
67	0x3cfe22e1	0.031022491
68	0x3d9cb1ed	0.07651124
69	0xbcb0a733	-0.021564102
70	0xbc2ccb68	-0.010546543
71	0x3d90cb52	0.0707003
72	0x3cfc07ce	0.03076544
73	0x3ccf04d8	0.025270864
74	0xbd863ea4	-0.065549165
75	0xbafc1225	-0.0019231482
76	0x3d473c55	0.04864152
77	0x3bacd567	0.005274463
78	0x3d912665	0.07087401
79	0x3d7e4d7d	0.062085617
80	0xbc691540	-0.014226258
81	0xbce66420	-0.028123915
82	0x3d926400	0.0714798
83	0x3c991439	0.0186864
84	0xbd44f712	-0.048087187
85	0xbc3552f5	-0.011067142
86	0xbcbefcd8	-0.023313925
87	0x3d478c5a	0.048717834
88	0xbd056a86	-0.03257229
89	0xbd7e5318	-0.062090963
90	0x3d356689	0.04428724
91	0x3d48c574	0.04901643
92	0x3cd547f5	0.026035288
93	0xbca86f24	-0.020560808
94	0x3d88216c	0.06647
95	0x3d54adef	0.05192369
96	0xbd2491b1	-0.040178005
97	0xbd792c28	-0.060833126
98	0x3d85ac3f	0.06526994
99	0xbd25dbd7	-0.04049286
100	0x3d0b851b	0.034062486
101	0x3d47bcf5	0.048764188
102	0xbc7c6a80	-0.015406251
103	0x3d827194	0.063693196
104	0x3da2c847	0.07948356
105	0xbd7bd26d	-0.061479975
106	0x3d9b985c	0.075974196
107	0xbbc5fdf4	-0.0060422365
108	0x3d85fa69	0.065419026
109	0xbc744649	-0.014909335
110	0xbd72dcd9	-0.059292648
111	0x3d5c8a02	0.053842552
112	0xbb4af4f2	-0.0030968753
113	0xbd8a6499	-0.06757469
114	0xbc947bfe	-0.01812553
115	0x3c807929	0.015682774
116	0xbd653b68	-0.055964857
117	0x3d779b8e	0.060451083
118	0x3d0dc7e1	0.034614448
119	0xbd196bf6	-0.037456475
120	0x3d1e5aca	0.038660802
121	0x3d4edde5	0.050504584
122	0xbd581162	-0.052750953
123	0x3d243216	0.04008683
124	0x3d3848a8	0.044991165
125	0x3d46dbcd	0.048549462
126	0xbc674e18	-0.01411774
127	0x3d9a99aa	0.0754884
128	0xbc368521	-0.011140139
129	0x3d5b18a8	0.05349031
130	0x3d856a89	0.065144606
131	0x3d717453	0.058948826
132	0x3da72259	0.08160848
133	0x3d703144	0.058640733
134	0x3cbbf7be	0.022945281
135	0x3d82ebbe	0.063926205
136	0xbd05e261	-0.032686595
137	0xbcdb1284	-0.026742227
138	0x3d17e66e	0.03708499
139	0x3d658c5c	0.05604206
140	0xbd15b134	-0.036545947
141	0xbce36296	-0.02775697
142	0x3bbebb0c	0.0058206376
143	0xbcdd8c81	-0.027044537
144	0x3d8e683f	0.06953477
145	0xbd02842d	-0.031864334
146	0xbcbfcf24	-0.023414202
147	0xbc6bdfda	-0.014396632
148	0x3d1767e5	0.036964316
149	0xbcdfae97	-0.02730493
150	0x3d81efcf	0.06344568
151	0xbd4f43cc	-0.050601766
152	0xbcd70f34	-0.026252367
153	0x3c694d93	0.014239687
154	0xbcead2d4	-0.028664984
155	0x3bc16dcb	0.005902981
156	0xbd0ef99f	-0.034906026
157	0xbd441d0f	-0.047879275
158	0x3da00dfc	0.07815167
159	0xbd2f57ac	-0.04280822
160	0x3d373a1a	0.044733144
161	0x3d3e43b9	0.046451304
162	0xbca46997	-0.02006988
163	0x3d2ef213	0.04271133
164	0x3db15868	0.0865944
165	0x3c809a37	0.015698535
166	0x3cf2e4af	0.02965006
167	0xbd6e3518	-0.058156103
168	0x3d8bde46	0.06829505
169	0xbd097f8d	-0.033568908
170	0x3d8f84de	0.07007764
171	0xbd01e113	-0.031708788
172	0xbcf5173d	-0.029918307
173	0xbb4a8fec	-0.0030908538
174	0x3d80bb08	0.062856734
175	0xbd4c6fa5	-0.04991116
176	0x3d8e186a	0.0693825
177	0x3c462d6d	0.012095791
178	0x3d97b2fe	0.07407187
179	0x3d3ea19e	0.04654085
180	0xbd149b02	-0.03628064
181	0xbc9b62c4	-0.018967994
182	0xbd401385	-0.046893615
183	0x3beb36bf	0.007178157
184	0x3da5fa6a	0.08104403
185	0x3ca0baa2	0.019620243
186	0x3d9742fd	0.07385824
187	0xbd42b02d	-0.047531296
188	0xbcdd2698	-0.026995942
189	0xbcbcbb78	-0.02303861
190	0xbcaf68d0	-0.021412283
191	0x3c2dc355	0.010605653
192	0x3d2e6c1b	0.042583566
193	0x3d85e79f	0.06538319
194	0x3d223a58	0.039606422
195	0x3d9f1d26	0.077692315
196	0x3d0c4ef8	0.034254998
197	0xbc6543c8	-0.013993211
198	0xbcd02cde	-0.02541202
199	0xbc8c1274	-0.017098643
200	0x3b45bb18	0.003017133
201	0x3d26090a	0.040535964
202	0x3cc17736	0.023616415
203	0xbd21d108	-0.03950599
204	0xbd637e0a	-0.055540122
205	0x3d944244	0.07239202
206	0x3d98241e	0.07428764
207	0xbcbe5b5f	-0.023236929
208	0x3d39bf1d	0.045348275
209	0x3b987cc7	0.0046535465
210	0xbd51c3f8	-0.05121228
211	0x3a755fc2	0.00093602773
212	0xbccce4ab	-0.025011381
213	0x3d8bb322	0.06821276
214	0x3c00002e	0.007812543
215	0x3d38b47e	0.045094006
216	0x3d269cdf	0.040676948
217	0xbd66230f	-0.05618578
218	0x3cd650aa	0.02616151
219	0xbd64e7c4	-0.05588509
220	0xbd806b52	-0.0627047
221	0xb9abdf8a	-0.0003278221
222	0x3b308238	0.0026933085
223	0xbb15a446	-0.002283351
224	0x3b41eec1	0.0029591771
225	0xbd4665a6	-0.048436783
226	0xbafad63d	-0.0019137334
227	0x3d3af17f	0.045640465
228	0x3d503a74	0.050836995
229	0x3c8bdb69	0.017072396
230	0xbd52643c	-0.051365122
231	0x3da00ba9	0.07814724
232	0xbccfbffc	-0.0253601
233	0x3d878294	0.06616703
234	0xbcf0b58a	-0.02938344
235	0x3d84d0ca	0.06485136
236	0x3d8c76bf	0.068585865
237	0xbcc274fc	-0.023737423
238	0x3c8681a3	0.016419237
239	0x3d5ad885	0.053429145
240	0xbd39bb48	-0.04534462
241	0x3da9cbf1	0.08290852
242	0x3ccc4798	0.024936482
243	0x3cfd6a6a	0.030934531
244	0x3d2b5fda	0.041839458
245	0x3c8c2697	0.017108245
246	0x3d9c5101	0.07632638
247	0x3d9cf843	0.0766454
248	0x3d23edf5	0.040021855
249	0xbcffcd1a	-0.03122573
250	0x3b2dcfe3	0.0026521615
251	0x3d980429	0.074226685
252	0xbd3ac16c	-0.045594618
253	0xbd37d2d5	-0.0448788
254	0x3ce97deb	0.028502425
255	0xbd0d3a1d	-0.03447925

l3.weight f4 [3, 256]
0	0x3c33ab72	0.010966169
1	0x3dac00c0	0.083985806
2	0x3d21f696	0.039541803
3	0x3c988bd0	0.018621355
4	0x3d60336c	0.05473654
5	0x3ce4e453	0.027940905
6	0xbd7d2f89	-0.06181291
7	0x3dc0009f	0.093751185
8	0x3c8b4374	0.016999938
9	0x3bbe798d	0.00581283
10	0x3d9496c4	0.07255319
11	0x3cf27b1e	0.029599722
12	0x3b662977	0.003511993
13	0xbd44a97f	-0.048013207
14	0x3b8e5e97	0.004344772
15	0x3cc473ba	0.023980964
16	0x3d5053b7	0.050861087
17	0xbd1a1040	-0.037613153
18	0xbc3a5870	-0.011373624
19	0x3ce43118	0.027855441
20	0xbd270462	-0.040775664
21	0x3dc9883e	0.09840439
22	0x3cd8f208	0.026482597
23	0x3dafe2bd	0.08588169
24	0x3cc4b3d4	0.02401153
25	0x3d0a0309	0.0336943
26	0xbcf0cff8	-0.029396042
27	0x3da877fe	0.08226012
28	0x3d38c349	0.045108113
29	0x3c9585a3	0.0182522
30	0xbd1a43b5	-0.037662227
31	0xbd398c0c	-0.045299575
32	0xbbf67208	-0.007520918
33	0xbdb95525	-0.09049443
34	0xbb8b3d4a	-0.0042492496
35	0xbc9dc5e9	-0.01925941
36	0xbcf798fc	-0.030224316
37	0xbd25327a	-0.04033134
38	0x3d31677e	0.04331159
39	0xbd93be81	-0.0721407
40	0xbd37f42e	-0.044910602
41	0x3d8fd300	0.07022667
42	0xbd2e47dd	-0.042549003
43	0xbd3e4d52	-0.046460457
44	0xbc90a9c3	-0.017659074
45	0xbd245d88	-0.04012826
46	0x3d43c617	0.047796335
47	0xbd9fb10e	-0.077974424
48	0xbd9e6531	-0.077341445
49	0xbdabbd72	-0.08385743
50	0x3b909fab	0.004413565
51	0xbc874c6d	-0.016515935
52	0xbcbfbe15	-0.023406068
53	0xbd287510	-0.041127264
54	0xbd9789e1	-0.07399345
55	0xbdbeaa7f	-0.09309863
56	0x3d1e2692	0.038611002
57	0x3d4bc608	0.049749404
58	0x3d73531e	0.05940544
59	0x3d9d62be	0.07684849
60	0x3c69ef5b	0.014278258
61	0xbd742a35	-0.059610564
62	0x3db7051d	0.08936522
63	0xbd2c394b	-0.042046826
64	0xbbf5931c	-0.0074943434
65	0x3baf14ee	0.005343071
66	0x3b0b3114	0.002123897
67	0x3da8ae05	0.082363166
68	0xbd92ba1b	-0.07164403
69	0x3c5f36ff	0.013623952
70	0xbcc11a47	-0.0235721
71	0x3db46561	0.08808399
72	0xbcbbcefe	-0.02292585
73	0xbd96fd4c	-0.07372531
74	0xbd371c40	-0.044704676
75	0xbd3cfe53	-0.04614098
76	0x3da7d51f	0.081949465
77	0xbd93cbc8	-0.072166026
78	0xbdb80d56	-0.08986919
79	0xbd47331d	-0.04863273
80	0x3d991a08	0.07475668
81	0xbdbbaae8	-0.09163457
82	0xbd1a6cb3	-0.03770132
83	0xbc47ae08	-0.012187488
84	0xbd04224e	-0.032259278
85	0x3d92eb6b	0.07173809
86	0x3c37d254	0.01121958
87	0x3d6ba33d	0.057528723
88	0x3d8c0e07	0.06838613
89	0x3d7bc4b2	0.06146688
90	0x3da9fc15	0.08300034
91	0x3d0e2d04	0.0347109
92	0xbd8f534f	-0.06998312
93	0xbd43fd2c	-0.047848865
94	0xbba66da3	-0.0050789877
95	0xbdd20b79	-0.102560945
96	0xbb116177	-0.0022183338
97	0x3ce68521	0.028139653
98	0x3d3c3884	0.045952335
99	0xbda1f686	-0.07908349
100	0x3d8742e8	0.06604558
101	0xbd86f96b	-0.065905415
102	0xbd20eb00	-0.039286613
103	0xbd512eca	-0.051070012
104	0x3da49f17	0.080381565
105	0x3a1ddd12	0.0006022017
106	0x3dadff92	0.08496012
107	0x3cd26081	0.025680782
108	0xbdcb6dc1	-0.09933043
109	0xbc036b25	-0.008021151
110	0x3d072755	0.032996494
111	0x3cbc2882	0.022968534
112	0xbd4948e6	-0.049141787
113	0xbb9e37bd	-0.004828422
114	0x3d392178	0.045197934
115	0x3c6bf2cb	0.014401148
116	0x3ccde60c	0.025134109
117	0xbd33e707	-0.043921497
118	0xbcba117b	-0.022713413
119	0xbdbcd6e1	-0.092206724
120	0x3ba27814	0.004958162
121	0x3d5ede16	0.054411016
122	0xb9bffc09	-0.0003661814
123	0xbcc6ef24	-0.024283953
124	0x3da6a6eb	0.08137306
125	0xbd5c5bbb	-0.05379842
126	0x3997d8f0	0.00028962595
127	0x38a71827	7.967679e-05
128	0xbdbd8c13	-0.09255233
129	0xbda7ed61	-0.08199573
130	0x3d82811e	0.063722834
131	0xbd9021d4	-0.07037702
132	0x3d84a210	0.064762235
133	0xbd54d58b	-0.051961463
134	0x3d98230a	0.07428558
135	0xbccbab11	-0.024861844
136	0xbda5cda3	-0.08095863
137	0xbb4fbd20	-0.003169842
138	0xbdbf965a	-0.09354849
139	0x3d6407cd	0.055671502
140	0x3cf3a949	0.029743807
141	0xbdac42dd	-0.08411191
142	0x3d2f9592	0.04286725
143	0x3d4d15fb	0.05006979
144	0x3d61de7f	0.05514383
145	0xbcc3ba50	-0.023892552
146	0x3da2e113	0.07953086
147	0xbd60c054	-0.05487092
148	0xbd472a37	-0.048624244
149	0x3d61ebac	0.055156395
150	0xbd987b27	-0.074453644
151	0xbce90150	-0.028443009
152	0x3d525806	0.051353477
153	0xbcf209c9	-0.029545682
154	0xbc55634d	-0.013024163
155	0x3c5152ea	0.012776116
156	0x3dbac688	0.09119898
157	0xbd3e502d	-0.04646318
158	0x3ccd377e	0.025050875
159	0xbd535b1a	-0.051600553
160	0xbd8d6cf6	-0.06905548
161	0xbc2982e5	-0.010346149
162	0x3d51d09b	0.051224332
163	0xbceddeac	-0.029036842
164	0x3bf31baf	0.0074190716
165	0xbda6b0a2	-0.08139159
166	0x3d4ea4ec	0.05045025
167	0xbbd311d4	-0.0064413343
168	0xbcc62c92	-0.024191175
169	0x3c189a79	0.009314173
170	0xbc43c032	-0.011947678
171	0xbcbe1b54	-0.02320639
172	0xbcffc63a	-0.031222451
173	0xbd1ae1f8	-0.037813157
174	0xbd6ded9e	-0.058087938
175	0x3cbccb97	0.023046298
176	0x3a00f1d1	0.0004918846
177	0x3c79d5c1	0.015248717
178	0x3d7f2385	0.062289733
179	0xbd28bf27	-0.041197922
180	0xbd65bc88	-0.056088
181	0xbc40adaf	-0.011760159
182	0xbd3a130d	-0.045428324
183	0xbd202aa0	-0.03910315
184	0xbda62fcb	-0.081145845
185	0xbd5c6774	-0.053809598
186	0x3dcf516b	0.10122951
187	0xbd9d7cd0	-0.07689822
188	0x3d8dd4fb	0.069253884
189	0xbd4f0eb8	-0.050551146
190	0x3db10920	0.086443186
191	0x3dc8adb8	0.09798759
192	0xbd659aa7	-0.05605569
193	0x3dd1be4c	0.102413744
194	0xbdc5bb45	-0.096548595
195	0x3da7bf50	0.08190787
196	0x3c29375a	0.010328138
197	0xbd2d0400	-0.042240143
198	0xbdbcd207	-0.09219747
199	0x3c666d64	0.014064167
200	0xbd06c77f	-0.032905098
201	0x3d99db84	0.075125724
202	0x3da7477d	0.08167932
203	0xbc97a384	-0.018510588
204	0xbccfa388	-0.025346532
205	0xbcb63667	-0.022242738
206	0x3cf96c43	0.030447131
207	0x3c95dbfa	0.01829337
208	0xbda7a19d	-0.08185122
209	0xbd5686f8	-0.05237481
210	0x39e94a3c	0.00044496532
211	0xbdaa0725	-0.08302144
212	0x3d6969da	0.056985714
213	0xbd980314	-0.07422462
214	0xbd03ba52	-0.03216011
215	0xbd989add	-0.07451413
216	0x3d89b811	0.06724561
217	0x3d3bfe70	0.045896947
218	0x3c9c3743	0.01906932
219	0xbd7dab35	-0.061930854
220	0x3c5449eb	0.012957077
221	0x3c15e4e6	0.009148812
222	0x3dabedaa	0.0839494
223	0x3c57ab99	0.013163471
224	0x3cd90a11	0.026494058
225	0xbc7d40cc	-0.015457343
226	0x3b4a138c	0.0030834405
227	0xbd820ca9	-0.06350071
228	0xbd8b0255	-0.06787554
229	0x3b68cdc6	0.003552304
230	0x3ceec984	0.029148825
231	0x3dc3c03f	0.095581524
232	0xbc8606df	-0.016360698
233	0xbd058975	-0.032601792
234	0xbb4c3f9f	-0.003116585
235	0xbd228c9e	-0.039684884
236	0x3c933324	0.017968722
237	0x3d384041	0.044983152
238	0xbd27db23	-0.04098047
239	0x3d6b4f3b	0.057448607
240	0xbd065411	-0.032795016
241	0xbd8828da	-0.06648417
242	0xbda9bead	-0.08288322
243	0x3da4da9e	0.080495104
244	0xbd9ca92b	-0.07649454
245	0xbd0c8615	-0.034307558
246	0xbd8ffaac	-0.07030234
247	0xbd8f12ca	-0.069860056
248	0x3dbbe4b2	0.091744795
249	0x3d3c5b45	0.04598548
250	0xbdb43e7f	-0.08800983
251	0x3dc1b251	0.09457839
252	0x3d5c38ac	0.053764984
253	0xbd827702	-0.06370355
254	0xbb849c65	-0.004046964
255	0xbd0d4428	-0.034488827

l3.bias f4 [3]
0	0xbc8d529f	-0.01725131
1	0x3d4542d7	0.048159447
2	0x3a2e3b0f	0.00066463737
