embeddings_classifier_model/emb_classifier.pth (torch, 792407 bytes, 6 tensors)

l1.weight f4 [256, 512]
000000 42 53 02 3d 43 02 aa bb 30 e8 b7 bc 99 41 37 3d
       0.031817682 -0.005188258 -0.022449583 0.044740293
000010 e6 bd 2f bd 03 4e 70 3c 45 3c f0 3c f8 2c fa bc
       -0.04290571 0.014667037 0.029325614 -0.03053902
000020 65 37 2f bd f7 69 37 3c c8 e9 03 bd ea 39 64 3d
       -0.042777438 0.011194698 -0.032205373 0.055719294
000030 1c 00 2d bc e1 03 0e bd ba 74 7f 3d f1 36 fc bc
       -0.010559108 -0.034671668 0.06236718 -0.030787917
000040 48 e5 fd bb bc c5 c1 ba 7b fb d0 3c f6 71 d3 bb
       -0.0077482797 -0.0014783661 0.02551054 -0.006452794
000050 58 23 58 3c b8 52 f7 3b 6c b0 07 3d 4b 81 84 3b
       0.01319202 0.0075477026 0.033127233 0.0040437332
000060 a4 c9 a1 bc ab d0 0d 3d bd c4 a3 3b ca 5b 88 3c
       -0.01974947 0.03462283 0.0049978183 0.016645331
000070 ce 36 2b 3c 2a 3d 2a 3d b3 73 ba bc 81 75 3c 3d
       0.010450078 0.041562237 -0.022760248 0.046010498
000080 14 0b c7 ba b1 9f 68 bd 42 f2 8d bd 11 40 55 bd
       -0.0015185797 -0.05679292 -0.06930973 -0.05206305
000090 7a 13 c9 3b aa 8f 2b 3d fb 8d 6c 3d 95 af 4f 3c
       0.006136355 0.041885056 0.05775259 0.012676139
0000a0 a6 5b 73 3d 6d f1 a6 3c f9 5a 86 bd 11 b7 4b bd
       0.059413575 0.020378793 -0.065603204 -0.049735133
0000b0 d2 5c 7f bc 9f 32 4a bc cd 40 45 bd ff 46 e8 bc
       -0.015586095 -0.012341171 -0.048157502 -0.028354166
0000c0 51 3f 60 3c 63 4e 33 3d ec af d9 bc 73 01 1f ba
       0.013686971 0.043775927 -0.026573144 -0.00060655846
0000d0 79 eb 0d bd f5 18 0c bd d0 21 2e bd 91 18 67 bd
       -0.034648392 -0.03420349 -0.042512715 -0.056419913
0000e0 f1 1e 10 3d b9 fe 54 bd de d2 41 3c 6b 3d 44 3d
       0.035185758 -0.052000735 0.01183006 0.047910135
0000f0 12 df 30 bd 17 e8 51 3c 33 36 7f 3d d2 93 8f 3c
       -0.043181486 0.012811682 0.062307548 0.01752654
000100 6f 57 5a 3d 72 41 28 3d 55 6f 5c 3d 16 84 12 bd
       0.05330604 0.04107804 0.053817112 -0.0357705
000110 fd 2c ac 3b 67 95 97 3c 0c b8 94 3c f1 25 13 3d
       0.0052543865 0.018503858 0.018154167 0.035924856
000120 1f 9f 04 bd 31 c9 a5 3c 3f 33 37 bd 2e b1 86 3c
       -0.032378312 0.020237537 -0.044726606 0.016441908
000130 e1 43 e2 3b 42 e8 0b bd 9d 8d 88 bc fa 02 3c 3c
       0.0069050645 -0.034157045 -0.016669089 0.011475319
000140 89 bb 46 bc 3b 8e 13 bc 15 85 45 3c 98 eb 29 bd
       -0.012129673 -0.009006078 0.012055655 -0.041484445
000150 65 e7 bd 3c 8c 73 84 bd 19 90 45 bc 48 4d 9b bc
       0.023181627 -0.06467351 -0.012058281 -0.018957749
000160 ee 49 68 bd 67 11 4c bd 94 af 15 3d 1c 8f 8f bd
       -0.05671113 -0.049821284 0.036544397 -0.07009718
000170 49 e2 4f bd 3a 19 a5 3a 0d db 6a 3d 59 47 ae b9
       -0.05075291 0.0012596019 0.05733781 -0.00033241024
000180 fd 44 7c bc 56 e6 c5 bc 98 df 76 3d 07 52 b1 3c
       -0.015397307 -0.024157684 0.06027183 0.021645559
000190 df f6 50 3d 6b 57 06 bd f2 8a 70 bd 5b 3c 2a 3b
       0.051016685 -0.032798212 -0.05872626 0.0025975916
0001a0 65 3c 9b 3d 7c 6b 82 3c 1f 12 b3 ba 21 b8 47 3d
       0.07579879 0.015920393 -0.0013662017 0.048759583
0001b0 67 33 42 bc c2 cc d9 bc 34 b9 ad 3c 86 58 92 bc
       -0.011853076 -0.026586894 0.021206476 -0.017864477
0001c0 c4 c0 33 3b ad fe 52 bc cd ec 38 bc 04 e5 57 3c
       0.002742813 -0.012878102 -0.011286926 0.01317716
0001d0 1f 2c 55 bd 43 b4 86 bc cb ce f5 3c 60 ed 17 bd
       -0.05204403 -0.016443377 0.030005833 -0.037091613
0001e0 dd 58 42 3d a9 1e 86 3d c5 5e b3 3b a5 9c 42 bd
       0.047448028 0.06548817 0.005473944 -0.04751267
0001f0 2e 05 9a 3c 1b 7b 38 bd b2 1d ce bc c0 81 59 3d
       0.018801298 -0.045039278 -0.025160644 0.053102255
000200 1d 7f d1 bc 45 5a 16 bd 43 d2 2f bb 87 b6 0b bd
       -0.025573308 -0.03670718 -0.0026828207 -0.03410962
000210 b1 ae a3 3c 58 e5 36 bd 8d 63 09 bd a5 36 0f bc
       0.01998076 -0.044652313 -0.033542205 -0.008741056
000220 0f 5f 04 bd 16 08 68 bd 20 27 8a 3d 27 1a f3 3c
       -0.032317217 -0.056648336 0.06745744 0.029675556
000230 3c f4 90 3c 85 30 59 3c b6 5a 52 bc 08 f4 8c 3d
       0.017694585 0.013256197 -0.01283901 0.06882483
000240 2d 4c c8 bc 34 e3 16 bc 8c ba e4 bc 97 aa f6 bc
       -0.024450386 -0.009209443 -0.027920984 -0.03011064
000250 9a a7 45 3c 91 e6 15 3d fe 80 88 bd 65 90 d3 3c
       0.012063885 0.03659684 -0.06665228 0.025825689
000260 e5 d8 2e 3d f0 bc 02 3c 8c d3 6f 3d e6 14 20 3d
       0.042687315 0.0079796165 0.058551356 0.03908243
000270 6d bb 86 3d c8 db 8d 3d fa c6 f7 3c af b0 43 bd
       0.065787174 0.069266856 0.030246247 -0.04777592
000280 a8 af d9 3c 56 54 f1 3c 18 d3 8c bd a9 48 de 3b
       0.026573017 0.02945916 -0.068762004 0.006783564
000290 aa 12 12 3d 30 82 5e bb 17 44 b3 3b 6b b4 45 bd
       0.03566233 -0.003395211 0.0054707634 -0.048267763
0002a0 c8 f1 1a bd 69 b1 23 bd 0e 2d 82 bd 69 12 82 3d
       -0.037828237 -0.039964113 -0.0635625 0.06351168
0002b0 94 10 e1 3c 70 32 04 3c cd 16 53 bb b9 87 02 3d
       0.027473725 0.008068666 -0.0032209635 0.031867716
0002c0 37 90 ac bc 3c 41 5c bd ae d0 87 3d fb 8a 8c 3d
       -0.02106486 -0.05377315 0.06631599 0.06862446
0002d0 55 5b 2f bd 9a a0 3a bd 3c b5 4b 3d 7a a8 6c bb
       -0.04281171 -0.045563318 0.049733385 -0.0036111162
0002e0 70 b8 90 bd c7 63 90 bd 0a bb 4c bd 6c 61 66 3d
       -0.07066429 -0.07050281 -0.04998306 0.056245252
0002f0 8b e9 fa bb 93 0f ae bc dc 11 0f 3c 0e 2e f7 bc
       -0.007657235 -0.02124766 0.008732285 -0.030173328
000300 51 c5 b1 3c 41 05 63 3c 68 46 85 ba b7 1b 5d 3b
       0.021700533 0.013856233 -0.0010168077 0.0033738443
000310 be 13 92 3d b9 26 95 3b 25 67 1a 3d 7b 6b 07 3c
       0.07132672 0.0045517352 0.037696023 0.008265371
000320 d6 18 60 bd af 21 1b bc e4 dd 83 bd 44 76 69 bd
       -0.054711185 -0.00946848 -0.06438807 -0.056997553
000330 12 3f 12 3d 34 9d 2a 3c e9 c0 3e bd cf e7 35 bd
       0.03570468 0.010413457 -0.046570692 -0.044410523
000340 dd c9 aa b7 16 2e b9 bb cb 8b 12 bc b7 0f 83 3c
       -2.035958e-05 -0.005651246 -0.008944462 0.015998704
000350 57 4f 81 39 fd 07 86 ba db 1d 31 bb 0d e5 8c bc
       0.0002466391 -0.0010225769 -0.0027025852 -0.017199064
000360 45 1f 98 3c 60 9f 09 bd 20 97 1c 3c 1e 3e 6f 3d
       0.018569598 -0.033599257 0.009557515 0.05840885
000370 22 a3 c8 3c b5 bd 11 bd de 8a ac bc 7a f7 73 bd
       0.02449185 -0.03558131 -0.02106231 -0.059562184
000380 94 98 ca 3b 60 1f 8f bb 7a b8 a3 3c 31 01 75 bc
       0.0061827395 -0.004367754 0.019985426 -0.014953897
000390 3a 80 b5 bc 72 9b 14 38 70 a9 49 3d 45 a6 ca 3c
       -0.02215587 3.543072e-05 0.049233854 0.024737487
0003a0 f6 e1 1e bc ab 82 12 bd b8 67 a9 bc e1 58 23 3d
       -0.009697428 -0.035769146 -0.02067934 0.039879683
0003b0 46 87 58 bb b2 86 94 3d de 3d 3e 3a 7a a9 92 bd
       -0.0033039614 0.072522536 0.0007257144 -0.07161231
0003c0 08 67 f6 3c aa ad 5f ba 37 5e a0 bc 23 46 a6 bb
       0.030078426 -0.0008532653 -0.019576175 -0.005074279
0003d0 88 63 62 3d 76 7f c4 bb f8 5c c8 ba 8a 30 fc 3c
       0.0552707 -0.00599664 -0.0015286496 0.030784864
0003e0 f0 4f 7b bd 15 67 89 3a 20 44 8e bd 83 99 45 bc
       -0.06135553 0.0010482991 -0.069465876 -0.012060526
0003f0 be 45 64 3d f3 35 8e 3d 82 40 c0 bc a5 ac 1b bc
       0.055730574 0.06943884 -0.02346826 -0.009501611

l1.bias f4 [256]
000000 89 25 84 3d 79 a6 43 bc 4e bb 7e 3d d2 be 75 3d
       0.06452472 -0.011941546 0.062190346 0.059996434
000010 8c 29 96 3a f4 3b 38 3d d2 25 8d 3d 5a bf 22 3c
       0.0011456474 0.04497905 0.06891979 0.009933317
000020 ab e5 af bc 67 d9 03 3d 8e 8d bf 3c 53 ac 33 3d
       -0.021471819 0.032189753 0.023382928 0.043865513
000030 17 f0 4e 3d 70 1a 09 bc 69 90 1f 3d 50 18 35 3d
       0.050521936 -0.00836812 0.03895608 0.04421264
000040 f6 b6 c4 3c ee 77 6b 3d bf dc 5f 3d a4 7e 4a 3c
       0.024013024 0.05748742 0.05465388 0.012359295
000050 d2 fe 9a 3b cb 31 6e 3d 19 de 9c bb ad 06 0a 3d
       0.004730084 0.058152955 -0.0047872183 0.033697773
000060 1c 27 37 bd 90 51 b4 bb 6f c6 ad bc de 3d 3c 3d
       -0.044715032 -0.005502887 -0.021212785 0.04595744
000070 a8 a1 92 bb b6 47 e8 3c f4 3c 75 3d 03 e7 19 3d
       -0.0044748373 0.028354507 0.059872583 0.037573826
000080 b7 15 2b 3d 22 fd f0 3c 0b a0 d1 bc f8 79 a3 bc
       0.041768756 0.029417578 -0.02558901 -0.01995562
000090 3d 21 a0 3c 3e 0f 31 bd 40 5c 11 bd 0c c1 b2 ba
       0.0195471 -0.043227427 -0.035488367 -0.0013637855
0000a0 e2 37 02 3d ae 7d 84 3d 01 ef 6d bc 84 07 3c 3d
       0.031791575 0.06469284 -0.014522315 0.045905605
0000b0 17 df 15 bd 20 e0 27 bd aa 7c aa ba be ea b3 3a
       -0.03658971 -0.040985227 -0.0013007123 0.0013726575
0000c0 ef 2d 12 3b d0 a2 1f bd 2b 21 0f bd 57 74 47 3d
       0.002230521 -0.03897363 -0.03494374 0.048694935
0000d0 49 9f 47 3d 1a 78 cc bc 34 fb 29 bd 12 b7 1c bd
       0.04873589 -0.024959613 -0.04149933 -0.038260527
0000e0 b9 4c 30 3d 47 c4 05 bd a4 f0 dc 3c 0a 29 0b bd
       0.04304192 -0.032657888 0.026970215 -0.033974685
0000f0 3c cb c5 bc cb a6 8f 3d e6 d2 84 3c 6d 82 5b 3d
       -0.024144761 0.07014235 0.016213845 0.05359118
000100 4a a4 e6 bc c6 9f 30 3d 4e fd 26 bd 0c ad 26 3b
       -0.028154511 0.04312112 -0.040768914 0.0025432734
000110 28 dc b2 bc 8d ab 27 bd 3e 63 36 bb f0 5c 96 bb
       -0.021833494 -0.040935088 -0.002783015 -0.0045887157
000120 fe 3f 7a 3d 29 e5 bd 3c 1a 88 f5 bc 05 a1 5b bc
       0.061096184 0.023180561 -0.029972125 -0.013405089
000130 13 0d c4 3c bb 4d c8 3c bf 4e ca bb 8b 6b 1e 3a
       0.023932016 0.024451127 -0.006173938 0.0006043247
000140 45 9b 06 bd 1c 84 cf 3c f4 dd 60 3c e7 ed 04 bd
       -0.03286292 0.02533155 0.013724793 -0.032453444
000150 9e a0 ac 3c bb cf 86 bc 26 34 25 bd ef 76 37 3d
       0.021072682 -0.016456475 -0.040332936 0.04479116
000160 3d 24 e2 bc 7d 94 97 bb 88 6b 70 3d c6 27 85 3d
       -0.02760517 -0.0046258555 0.0586963 0.06501727
000170 5e a1 fb 3c d3 0b 8f 3d 84 2f 9c 3c 54 ab 63 3d
       0.030716594 0.06984677 0.019065626 0.055583313
000180 96 cc 79 3d f1 bb 2a bd 76 24 10 bd 68 08 1c 3d
       0.060986124 -0.04168314 -0.03519102 0.038093954
000190 3c 85 da 3c d6 e3 a7 3b f2 66 bc bc 72 01 11 bd
       0.02667486 0.0051235957 -0.022998307 -0.03540177
0001a0 86 45 50 3c 23 4a f1 bc 09 c5 80 3d 11 9f a2 3c
       0.012711888 -0.029454296 0.062875815 0.01985124
0001b0 73 b7 f7 3b 91 36 a2 3b 28 c0 11 bd 5c f2 7b 3d
       0.0075597106 0.0049503525 -0.035583645 0.06151043
0001c0 2d b9 15 3d 44 38 66 3d 17 c1 4a 3c 59 52 56 3d
       0.03655355 0.056206003 0.012375138 0.052324627
0001d0 44 3e 3a 3c 90 be 75 3c b6 72 82 3d 17 5f b4 3c
       0.011367384 0.014999047 0.063695356 0.022017999
0001e0 8e a6 0f bd c4 6c b0 3c c5 4d 99 3b e9 8b 9a 3c
       -0.03507095 0.021536238 0.0046784603 0.018865542
0001f0 76 6f 2d bd 5a f9 5c bc 18 70 b7 bb 21 20 8f 3c
       -0.042342626 -0.013487184 -0.0055980794 0.017471375
000200 79 84 3f 3d 9e 35 7a bc 60 3d 45 3d 8a 74 9c bb
       0.046757195 -0.015271572 0.048154235 -0.0047746347
000210 61 74 71 3d 67 61 80 3c 5c 8d 64 3c cb d6 00 3d
       0.05894888 0.015671445 0.013949718 0.031454843
000220 66 b5 5f 3b d6 54 38 3d 77 49 88 3d a1 ca 54 3c
       0.0034135222 0.04500278 0.06654637 0.012987764
000230 f4 9f 53 bc d6 3b f4 bc b7 b3 0d bd 0e fb 7c 3d
       -0.012916554 -0.029813688 -0.034595218 0.061762862
000240 e2 0f 68 3d 6e 72 fa 3c c9 8c 7c 3d 44 0f 5d 3d
       0.056655772 0.030572142 0.0616577 0.053969637
000250 d1 c6 8f 3d df 6a 10 bc 34 34 31 3d 62 74 89 3c
       0.07020343 -0.008814543 0.043262675 0.016779128
000260 f4 7b 1c 3b df 9b fa bc ad 1e 65 3d a2 64 be bc
       0.0023877593 -0.030591903 0.055937458 -0.023241345
000270 05 50 8a 3c a0 87 dc bb a7 e9 5a 3d 51 d7 6b bb
       0.01688386 -0.006730035 0.053445484 -0.0035986493
000280 a6 81 48 3c e8 10 9d 3c 50 d4 37 bb 62 da 08 3d
       0.012237942 0.0191731 -0.0028050132 0.03341139
000290 73 81 ed 3c d8 19 ed bc d3 aa 0e 3d 12 84 4b 3d
       0.02899239 -0.028942987 0.03483088 0.0496865
0002a0 3c 55 a3 3c ae f4 d1 3c fc e9 5f 3c 31 d4 1e 3d
       0.019938104 0.025629368 0.013666626 0.03877658
0002b0 16 01 0c 3d 2f cd d5 3c 90 11 1f bd 78 3e 5a bc
       0.034180723 0.026098816 -0.03883511 -0.013320558
0002c0 dd 68 ff bc e5 87 cc 3c 12 31 ab bc e7 4b 1b 3d
       -0.031177932 0.024967143 -0.020897422 0.037914183
0002d0 8a 4a 88 3d 71 99 5f 3d 91 54 05 bd 24 5b 00 bc
       0.06654842 0.054589693 -0.032551352 -0.00783423
0002e0 7c ee 55 3d bb 42 81 3c 19 95 12 3d df be 45 3d
       0.05222939 0.01577889 0.03578672 0.048277732
0002f0 5b 5e e3 3c 18 e9 04 bd 8e 53 ec bc 8c 84 64 b9
       0.027754953 -0.032448858 -0.028848436 -0.00021793152
000300 5c 1a 08 bd db bb d7 3c 3a 8e 17 3d 77 7c 51 3d
       -0.033228263 0.026334694 0.037000872 0.05114409
000310 01 67 15 3d 76 f9 10 bd 80 0a 45 bd f8 c1 2b bc
       0.036475185 -0.035394154 -0.048105717 -0.0104832575
000320 39 6b c3 bc c5 b0 7d 3d 00 22 39 3d e3 4f 9b 3d
       -0.023854839 0.06193616 0.04519844 0.075835966
000330 31 9f 5f 3d 32 01 6e 3d 96 c2 d6 3c 76 34 24 bd
       0.054595176 0.05810661 0.026215833 -0.040089093
000340 bd c3 aa bb 08 ea 8e bc 96 c9 2e 3d 2d 62 77 3d
       -0.005211322 -0.01744558 0.042672716 0.060396362
000350 5a 2e 68 3d 9e db 73 3d e3 9b 34 bd d2 7a de bc
       0.05668483 0.059535615 -0.044093978 -0.027158175
000360 8e 50 65 3c ad 0d 8f 3d 4e 1f 32 bd ca 0d d7 3c
       0.0139962565 0.0698503 -0.043486886 0.026251692
000370 29 42 b5 3c 47 80 3b 3d 66 6a 8a bc f6 31 56 3c
       0.022126274 0.04577663 -0.016896438 0.013073435
000380 35 8f dc bc 1b 7c 93 bc 6a 52 e3 bc 66 06 5e 3d
       -0.026923755 -0.018003514 -0.027749259 0.05420532
000390 3b c2 8a 3d 1d d6 bb bc d8 80 e9 bb 39 35 2d bd
       0.06775328 -0.022929246 -0.007125955 -0.042287085
0003a0 a9 d9 e7 ba 3b 57 16 bd c2 ed 84 3d 57 0f 90 3d
       -0.0017688769 -0.036704283 0.06490661 0.07034176
0003b0 bf d1 ac 3c 9e 49 46 3d 8e 0e fd 3c d6 a1 38 3d
       0.021096108 0.04841005 0.03089073 0.045076214
0003c0 ab 1c c6 bc b0 3d 09 bb 06 ef 21 3d 8c a9 36 3d
       -0.024183592 -0.002094131 0.03953459 0.044595286
0003d0 36 1f a1 bc 32 bd ed 3c 14 52 58 3d d8 db d1 3c
       -0.019668203 0.02902088 0.05281265 0.025617525
0003e0 e0 1f 5b bb 3d 82 37 3d 9b 8a 68 3d 89 eb 79 3d
       -0.0033435747 0.04480194 0.05677281 0.06101564
0003f0 80 2a 62 3d 7c 74 60 bc 5b 6f 8f 3d 26 19 9b bc
       0.055216312 -0.013699647 0.07003661 -0.01893289

l2.weight f4 [256, 256]
000000 8f 85 19 bc 2c 8c 2b bd 3e 9a e8 bc 36 12 ff bc
       -0.009370222 -0.041881725 -0.02839386 -0.031136613
000010 e0 4b 57 bd 9a 33 e3 bc f5 69 af bc 96 97 52 3d
       -0.052562594 -0.027734566 -0.021412829 0.051414095
000020 04 ac a3 3b 8b 8b 49 3d 00 00 b9 bc 93 9d 67 3c
       0.004994871 0.049205344 -0.022583008 0.01413669
000030 35 8f 03 3d 6a 02 2c bd 99 23 1b bc de ae 85 bb
       0.032118995 -0.04199449 -0.009468936 -0.0040796837
000040 f7 4b 60 bd 8d 06 3a 3d 08 18 e4 3c 9b af 54 bd
       -0.054759946 0.045416404 0.02784349 -0.051925283
000050 39 61 23 3d 47 36 a7 bb 00 94 1a bc 7f 78 54 bd
       0.03988764 -0.005102906 -0.0094347 -0.051872727
000060 10 83 50 bd d0 9c c8 bc ec 9d e7 bc f4 4a 33 bd
       -0.05090624 -0.024488837 -0.028273545 -0.043772653
000070 e0 4c 39 bd 90 33 52 bd 34 cf 77 bc f1 68 34 3d
       -0.04523933 -0.051318705 -0.015125085 0.044045392
000080 de a5 4b 3d c2 9f 74 bc 2c 22 6b bd 70 d3 7b 3d
       0.04971873 -0.014930667 -0.057405636 0.06148094
000090 fc 24 e0 3c 71 eb ef bc 48 fa 6b 3d 18 17 89 bc
       0.027361386 -0.029287072 0.057611734 -0.016734645
0000a0 a6 d7 6b bd 58 b9 51 bd 47 73 a3 bc 92 d5 d3 bb
       -0.057578705 -0.05120215 -0.01995243 -0.0064646685
0000b0 c0 84 4d 3d 94 6e 5c bd c4 c2 1f bc df a4 41 bd
       0.05017543 -0.053816393 -0.009751026 -0.047276374
0000c0 32 6f 62 bd 18 28 f6 bb f0 b4 d5 3c d1 77 4e bd
       -0.055281825 -0.0075121038 0.026087254 -0.050407235
0000d0 a0 77 58 bd 08 6f d4 bc 2e 6c 00 bd fc 37 07 bd
       -0.05284846 -0.02593185 -0.03135317 -0.033012375
0000e0 b1 64 10 3d 44 29 e0 3c bc 20 8a bd ac d8 b7 bb
       0.035252277 0.027363427 -0.06744525 -0.005610546
0000f0 7f a7 09 bc 5d 26 0c 3c 64 0d a9 3a 46 80 9f bc
       -0.008401751 0.008554068 0.0012897667 -0.019470345
000100 7c ce c4 3c 33 13 81 bd c0 aa da ba 66 93 13 bd
       0.02402424 -0.0630249 -0.0016682968 -0.036029242
000110 77 e1 a2 3c 18 06 7b 3d 26 a8 25 bd 41 60 57 3b
       0.0198829 0.06128511 -0.040443562 0.0032863768
000120 40 cd 35 bd f4 02 2f bb 50 dc 45 bd 54 4d 8e bc
       -0.044385195 -0.002670464 -0.04830581 -0.017370857
000130 0b 55 50 bd 9f 63 2b 3d c4 24 30 bd 17 d4 68 bc
       -0.050862353 0.041843053 -0.043003812 -0.014210722
000140 fc ec 38 bd 04 7d 23 bd 47 09 35 3d 8e 14 08 3d
       -0.04514788 -0.039914146 0.0441983 0.033222727
000150 a8 5f 13 bd 84 58 15 bc 0c 2b 24 bd a2 51 c1 3c
       -0.035979897 -0.009115342 -0.040080115 0.023598496
000160 7a c1 17 3d 22 d3 3b 3d 9c 30 3a 3d f0 9b ba bb
       0.037049748 0.04585565 0.045456514 -0.0056948587
000170 d7 1b ab bc 88 86 7a bc 4a 7c 27 3d 53 41 df bc
       -0.020887299 -0.015290864 0.040890016 -0.027252829
000180 0e a8 8d 3b 40 e2 98 3b fa 89 19 3d b0 91 67 bd
       0.004323012 0.004665643 0.0374851 -0.056535423
000190 d6 87 ea 3b 4c 21 e0 bc 00 06 dc bc 44 8a 2a 3d
       0.007157306 -0.027359627 -0.02685833 0.041635767
0001a0 00 a9 ed 3b dc d1 d0 3b bf 05 57 3d c3 ec 7f bc
       0.0072528124 0.0063726734 0.052495714 -0.015620413
0001b0 af 6a 1e 3c 96 7e 4a 3d 96 10 6d 3d 3b 61 39 bd
       0.00966899 0.049437128 0.057877146 -0.04525874
0001c0 b3 63 20 3c 5e 6b 32 bd 20 cc 0b bc cc 53 5b bc
       0.009789395 -0.043559425 -0.008532554 -0.013386678
0001d0 6c 7b 50 3d 8a 5c b5 3b 51 6d 1b 3d d6 7c 52 3d
       0.050898954 0.005534713 0.03794605 0.051388584
0001e0 6a 18 4a 3d 69 86 56 3d 5b 04 d6 bc dc 40 96 3c
       0.04933969 0.052374277 -0.026125124 0.018341474
0001f0 f8 49 9f bc d2 45 2e 3d b7 dd dc 3c 0e 53 3f bd
       -0.01944445 0.042547055 0.02696119 -0.046710066
000200 ab 5c 12 3d 58 17 f0 bb 50 f9 12 3c 66 22 48 3d
       0.035732906 -0.0073270015 0.008970574 0.04886093
000210 cf da 58 bd 1c 65 5f bc b2 be 6a 3d 00 c1 84 3c
       -0.052943047 -0.013634946 0.057310767 0.01620531
000220 64 16 ca 3c dd bd 34 3c 5d b8 4f bd ce 94 78 3d
       0.02466888 0.011031595 -0.050712932 0.060688786
000230 f8 a0 3e 3d 9e a7 7f 3d 30 52 50 bd 9b bf 76 bc
       0.04654023 0.06241571 -0.05085963 -0.015060331
000240 a3 d8 3b 3d c0 15 11 3d 3b 3d 2e bd ad ec 53 bd
       0.045860898 0.035421133 -0.042538863 -0.051739383
000250 d1 d1 9d 3c f9 8c 28 bd b3 16 c6 3c a9 ab f8 bc
       0.019265087 -0.041150067 0.024180746 -0.030355291
000260 9c 71 e0 3c 34 46 04 3c 23 5f 2e 3d f0 84 8d 3c
       0.027397923 0.008073378 0.0425712 0.017275304
000270 d0 b8 c7 bc 55 ef e9 3b f9 9a af bc 38 1c 46 3d
       -0.024380118 0.0071391263 -0.021436201 0.048366755
000280 54 15 e5 bc fb 43 f1 bc 24 64 12 bd 06 cf 38 bd
       -0.027964272 -0.02945136 -0.035740033 -0.045119308
000290 96 b4 c3 bc fd 84 97 bb b8 e3 de bc eb b3 23 3c
       -0.023889821 -0.0046240077 -0.027208194 0.009991626
0002a0 d5 f5 63 bd 44 3e ad bc c4 e3 15 3d c7 75 53 bd
       -0.055654366 -0.021147855 0.036594167 -0.051625993
0002b0 98 6e 09 3c 48 6f 0f bc b8 a9 24 3c cc 5f 99 3a
       0.008388184 -0.008754559 0.01005023 0.0011701523
0002c0 be 39 4b bd 6f 91 bc 3c a3 65 d0 3c db 8f f6 3c
       -0.049615614 0.023018567 0.02543909 0.030097893
0002d0 21 dc 9c 3c d6 44 11 bd a0 a7 b4 3c a8 d4 a7 bb
       0.019147934 -0.035466038 0.022052586 -0.005121786
0002e0 c4 c0 3b 3d bc 46 8d 3b 90 75 80 bd b7 fb 3b 3c
       0.045838133 0.0043114107 -0.06272423 0.011473588
0002f0 0b 3b 07 b9 94 b4 24 bd d8 49 6e 3d d6 78 62 3d
       -0.00012896598 -0.040211275 0.05817589 0.05529102
000300 e6 68 5c bd f9 4c c5 3c 98 2f 19 bd dc 80 23 bd
       -0.053810976 0.024084555 -0.037398905 -0.03991781
000310 4c b3 17 3c c0 4e 49 bc 8f 3f 6e bd 5b 4f c8 3c
       0.009259056 -0.012286842 -0.058166083 0.024451902
000320 be bf 0c 3d ce d7 37 3d 8b 9d 84 bd af f7 49 3d
       0.034362547 0.04488354 -0.064753614 0.049308475
000330 78 f4 21 3b a8 da f6 bc 10 61 3e 3d 69 5c 8e bc
       0.0024712365 -0.03013356 0.046479285 -0.017378049
000340 a1 08 25 3d d8 2c 15 3b 87 cc 01 bb be fe b1 3c
       0.040291432 0.0022762325 -0.0019805746 0.021727916
000350 bb d3 5c 3d 20 6d 0e 3d 50 51 18 bd 22 67 62 3d
       0.05391286 0.03477204 -0.03718692 0.055274136
000360 b0 1e 90 bc f0 7d c1 3c 08 92 58 bd db eb b1 bc
       -0.017592758 0.023619622 -0.05287364 -0.02171891
000370 eb de 6f bd f8 06 63 3d 04 08 af bc 74 20 a6 3c
       -0.0585622 0.055426568 -0.021366127 0.020279147
000380 74 87 2e 3c ce 1f 39 3d 54 ab 65 bd 05 e7 3e 3c
       0.010652412 0.045196347 -0.056071594 0.011651759
000390 58 c0 0b 3d 74 a8 0a b9 34 c8 96 3c b8 ff 4f 3d
       0.03411898 -0.00013223459 0.018406011 0.05078098
0003a0 96 f7 e0 bc e8 af 27 bc 51 50 ce bc 25 08 e0 bc
       -0.027461808 -0.01023481 -0.025184782 -0.027347634
0003b0 59 63 93 bc 42 9b a7 bc d2 a0 31 bd 84 fb c7 3c
       -0.017991709 -0.020459775 -0.04336626 0.024411924
0003c0 34 76 17 bb 56 fb 26 3d 37 c7 78 bd 69 b8 a9 bc
       -0.0023111226 0.040767036 -0.06073686 -0.020717816
0003d0 5a 33 2d 3c d6 a3 06 bd 4b 0d 3a 3d 2c 58 26 bd
       0.010571325 -0.03287109 0.045422833 -0.04061143
0003e0 fc ed 92 bc 4a 29 57 3d 66 9b ec bc 8f 91 52 3d
       -0.017935745 0.05252961 -0.028882693 0.051408347
0003f0 fe 62 c1 3c b8 af 17 3d 71 34 6b bb 14 75 61 3d
       0.023606773 0.037032813 -0.0035889412 0.055043295

l2.bias f4 [256]
000000 4b f5 ec bc 40 d4 af 3a 6d ff 33 bd c0 72 76 3c
       -0.028925559 0.0013414696 -0.043944765 0.015042007
000010 d1 02 1f bc 64 81 fa bc 7d eb ac bc 47 a2 9d 3c
       -0.009705261 -0.030579276 -0.021108383 0.019242419
000020 1a a2 03 3d 91 76 86 bd 25 f3 92 3d 8e c1 5a bd
       0.032137014 -0.065655835 0.071752824 -0.053407244
000030 ab a3 15 3d 0a 93 60 bd 28 49 5c bd 67 13 70 3d
       0.03653304 -0.054827727 -0.053780705 0.058612254
000040 4e b0 36 bd cb ef 9f 3d bb e1 49 3c fd 9b 58 3d
       -0.04460173 0.07809409 0.012321885 0.052883137
000050 66 81 86 bd e3 88 25 3d 0d 7f d3 bc da c1 16 3d
       -0.065676495 0.04041375 -0.025817418 0.036805965
000060 f8 74 39 bc 22 ff 34 bd 0c 0a 96 bd c1 ca 6d 3b
       -0.011319391 -0.044188626 -0.07326135 0.003628418
000070 ac 36 a6 3d 1e 4e 9b 3c 4c ac 88 3d a4 f3 60 3d
       0.081158966 0.018958148 0.06673488 0.054919854
000080 2f 82 9b 3d 87 d5 52 3d 59 7a 5d 3d 3e cd 97 3d
       0.0759319 0.051473167 0.054071758 0.07412194
000090 58 d9 8d 3d 3a 09 2f 3d 9c bb a7 bc 90 cb df bc
       0.06926221 0.04273341 -0.020475201 -0.027318746
0000a0 06 db d8 3c 5f 04 55 3d 78 21 6c bc 1c f4 80 3d
       0.026471626 0.05200612 -0.014412276 0.0629656
0000b0 92 01 b4 bc 25 b6 a4 3d 1f ef a3 39 c6 56 9b bc
       -0.021973405 0.08042554 0.00031267942 -0.018962275
0000c0 1d 0b 3e 3d 1d 30 9c 3d 3a 0c 07 3d 8f 5d 9a bc
       0.046397317 0.076263644 0.032970645 -0.01884344
0000d0 00 4f 76 3b b0 3f 4c 3d b5 f4 5c 3d a7 e1 98 3d
       0.0037583709 0.049865425 0.05394431 0.07464915
0000e0 c7 d4 09 bd b3 9c 9e 3d d7 ec 4f 3d 7c 48 56 3d
       -0.033650186 0.07744732 0.050762977 0.05231522
0000f0 99 e4 00 bd 15 29 e4 bc 8a 27 86 3d 53 9c 94 3d
       -0.031468008 -0.02785162 0.0655051 0.07256379
000100 e5 db 16 bd 4c 92 30 bd 10 9a 7c bd d6 ad 57 bd
       -0.0368308 -0.04310827 -0.061670363 -0.052656017
000110 85 06 31 3d 65 9b 86 bd 35 84 61 3d 25 c7 11 3d
       0.043219108 -0.06572608 0.055057723 0.03559031
000120 5d ff 12 3d 53 b3 17 bd 7f e1 4f bd 42 a5 c5 bb
       0.035888065 -0.03703625 -0.05075216 -0.006031663
000130 b7 4e 68 3d ae e6 4a bd 23 c1 85 3c 25 d5 35 3d
       0.056715693 -0.0495364 0.016327446 0.044392724
000140 b0 c3 5d bd 46 d6 44 3c b1 57 37 3d fc 51 9b 3d
       -0.0541417 0.012013977 0.044761363 0.07583997
000150 83 ea 9d 3d e2 9a 62 bd b9 60 0e bd b3 f4 a6 3d
       0.07710745 -0.05532349 -0.03476021 0.081521414
000160 ed 1a d6 bc 48 69 97 3d 8d 5d 6d bc 20 f7 3c bc
       -0.026135886 0.07393128 -0.014487636 -0.011533529
000170 03 be 96 bc c7 27 9d 3d 89 e9 20 bc ec 49 b6 bc
       -0.018401152 0.076736026 -0.009821304 -0.022252046
000180 1c 1b 18 bd 0d da ff bc 20 34 a4 3c 9c 06 88 bb
       -0.03713523 -0.031231904 0.020044386 -0.0041511785
000190 9b dc 98 bc 82 71 80 3d 9c 2e 08 bd 1a db 34 bd
       -0.01865988 0.0627165 -0.033247575 -0.044154264
0001a0 f1 55 5f 3d 17 06 49 3d 3a 89 97 3d 24 d1 93 3d
       0.05452532 0.049078073 0.07399221 0.07217625
0001b0 8d 97 49 bd 3c 07 ae 3c 7c fb a0 3d a0 7d 8f 3b
       -0.049216796 0.021243684 0.07860467 0.0043789893
0001c0 36 c5 32 bd 19 92 0b bd 04 70 33 3d 09 80 72 3c
       -0.043645106 -0.034074876 0.043808 0.014801034
0001d0 54 e1 a2 3d 4d ea 87 3d b8 89 3f 3d 3f 8f 84 3d
       0.07953134 0.06636486 0.0467622 0.064726345
0001e0 b2 82 13 bd 0e ed 14 bc 9f fc 1f 3d e5 67 4b 3c
       -0.036013313 -0.009089721 0.039059278 0.012414907
0001f0 33 9c 3e 3d e0 fd 55 3d 5d 9c 03 3d 07 0f 83 3c
       0.046535682 0.052244067 0.03213154 0.015998377
000200 7e d7 1a 3b 37 80 c4 3b eb 98 77 bc 70 98 24 bc
       0.0023626979 0.0059967297 -0.015112142 -0.01004611
000210 ee ae 22 3d 4a e2 6e bd 41 11 9b bc 16 4f 74 3d
       0.039717607 -0.058321275 -0.018929126 0.059645735
000220 be c2 25 3c 94 26 9c 3d 93 12 8e 3d 98 7e 6c bd
       0.010117231 0.07624546 0.069371365 -0.057737917
000230 d1 23 44 3d 03 7d 37 3d 5f 16 04 bd 9c e0 79 bd
       0.04788572 0.044796955 -0.032247897 -0.06100522
000240 e7 8f 8c bd 92 74 87 3d 86 6d c3 39 13 78 3c 3d
       -0.06863385 0.06614031 0.000372749 0.04601295
000250 ca 91 90 3c dc 2e 85 3d 17 1d 5f 3d 30 ef 7f 3d
       0.017647643 0.06503078 0.0544711 0.062483966
000260 28 2e 9b ba 23 b0 88 bc c2 1d 5d bd f8 59 2c bd
       -0.0011839317 -0.016685551 -0.053983457 -0.04207799
000270 4c ce 3e bd cc 91 46 bd 08 00 33 bd 9c 8c 9a 3d
       -0.04658346 -0.048478886 -0.0437012 0.0754635
000280 09 92 8a 3d 98 aa 0b bd 3d 8c 3a bd 5f 89 34 3d
       0.06766135 -0.034098238 -0.045543898 0.04407632
000290 18 66 14 bd 4a 1f 0f bd 42 05 9b 3d 5a a4 47 3d
       -0.036230177 -0.03494195 0.07569362 0.048740722
0002a0 d1 81 f2 bc d2 f9 04 3d f8 95 e1 bc e9 2c ab 3c
       -0.029602917 0.03246481 -0.027537331 0.020895438
0002b0 f7 0c 27 3d 86 39 31 bd 02 2e 54 3c 90 16 5e bc
       0.04078385 -0.04326775 0.012950422 -0.013555184
0002c0 62 77 31 3d e4 a3 26 3d 50 99 51 bd cc c7 4e 3d
       0.043326743 0.040683642 -0.0511716 0.05048351
0002d0 fe be 94 3d aa 6f 8f 3c 38 58 16 bd 8b 75 87 bd
       0.07262991 0.0175093 -0.036705226 -0.066142164
0002e0 72 bd 9f 3d c7 04 5a bd 7c 60 3e bd 48 66 04 bd
       0.07799806 -0.053227212 -0.046478733 -0.032324106
0002f0 19 ab 24 3d df 74 96 3b fa 72 4f 3d 48 7c 6b bd
       0.040202234 0.004591569 0.05064676 -0.05749157
000300 bc dc a5 bb 7a 8d 86 bd 36 1c 2a 3d a3 cf 74 3d
       -0.005061714 -0.06569953 0.04153081 0.05976833
000310 d4 a9 a9 bc f7 e7 aa 3d f6 fe cd ba f2 b2 87 3c
       -0.020710863 0.08345025 -0.0015716243 0.01656482
000320 57 f7 43 bc a8 87 4c 3a 74 3d 15 3d 00 bd 1d bd
       -0.011960826 0.0007802197 0.03643556 -0.038510323
000330 9c 90 82 3d c2 1c e5 3c 71 5d e4 3c 58 30 87 3d
       0.06375238 0.027967814 0.027876588 0.06601018
000340 8c bd 45 bd a2 c8 0e bd ec 6c 29 bd 83 50 01 3d
       -0.04827647 -0.034859307 -0.04136364 0.031570923
000350 8e 89 74 3d b4 61 62 bc 3d fe c3 bc 05 5c 0b 3d
       0.059701495 -0.01381724 -0.023924941 0.034023304
000360 e0 92 02 bc 8e 5d 57 bc ca 01 5b bd 4e 07 12 bd
       -0.007969588 -0.013144864 -0.053468503 -0.035651498
000370 1d cb 6d 3d cf 00 06 bd 55 e8 6d 3d 78 ab e0 3c
       0.058055032 -0.032715615 0.058082897 0.027425513
000380 98 22 08 3d ca 9f a4 3d 32 92 20 bd 46 7c 13 3d
       0.033236116 0.0803829 -0.039201923 0.03600719
000390 37 f9 23 3d 92 23 09 bd 48 e5 44 3a e9 3f 81 3d
       0.04003259 -0.033481188 0.0007510972 0.06311018
0003a0 8d f2 89 3d 55 31 9b 3b 91 db 98 3d e0 70 6f 3d
       0.06735716 0.0047361054 0.07463754 0.058457255
0003b0 98 df 4e 3d d9 a5 99 3d ba be 28 3c 42 d6 54 3d
       0.050506204 0.07502336 0.010299379 0.051962145
0003c0 62 04 36 bd cf 49 a8 bc f4 b5 f7 bb 24 3f 22 3d
       -0.044437774 -0.020543007 -0.0075595323 0.039610997
0003d0 07 c6 b0 bc 65 8c 05 3d 50 c7 60 bd 1e c9 13 3d
       -0.021578802 0.032604594 -0.05487758 0.036080472
0003e0 c0 80 b5 b9 d5 43 68 3d 46 e7 2c bd 0a aa 81 3d
       -0.00034618936 0.056705315 -0.042212747 0.063312605
0003f0 8b 51 29 bd 3a ab 21 3d 12 2a 29 bd 84 27 b4 bc
       -0.04133753 0.039469935 -0.041299887 -0.021991499

l3.weight f4 [2, 256]
000000 b0 e9 48 3d d6 fe 50 3d 01 74 dc bc 45 ea b4 3d
       0.049050987 0.05102428 -0.026910784 0.08833746
000010 49 9e 07 bc 66 ed 5b bd d7 b1 9c 3d 37 cc 03 bd
       -0.008277484 -0.053693198 0.07651108 -0.032177176
000020 97 33 56 bd 10 33 94 bc 79 80 84 bd 88 07 9a bc
       -0.052295294 -0.018090755 -0.06469817 -0.01880242
000030 f0 3c 18 bd e7 99 1d ba 14 5b c3 3c 0a d8 87 3d
       -0.03716749 -0.0006012008 0.02384714 0.06633003
000040 57 ba 32 3b 14 0b bc bd 67 dd 4c 3d 61 4f d0 3c
       0.0027271712 -0.091818005 0.050015833 0.025428476
000050 3d c4 07 3d 85 19 12 3d 4d 70 97 bd 9e 27 4f 3d
       0.03314613 0.03566887 -0.073944665 0.05057489
000060 cc 5f 01 3d cf 55 11 bd ec da e5 bc 69 12 fb bc
       0.0315855 -0.035482224 -0.028058492 -0.030648427
000070 3d ab 89 3c da 88 f1 b8 0b 5e 57 3c e3 57 5f 3d
       0.016805286 -0.00011517266 0.01314498 0.054527175
000080 cb 41 40 3d 42 f7 41 3d 6a 10 0f 3d 42 43 e1 bb
       0.046937745 0.047354944 0.034927763 -0.006874473
000090 7c 54 05 3d 44 de 87 3d a7 26 fc bb 02 0d c9 3c
       0.032551274 0.06634191 -0.0076950374 0.024542335
0000a0 a5 fb 7e 3d 52 42 ae bd f5 50 09 ba 60 58 ad bd
       0.062251706 -0.08508743 -0.0005238199 -0.08464122
0000b0 95 b2 26 3d 4c 1c 95 bd d4 16 fe bc 65 1e 90 bd
       0.040697653 -0.07280788 -0.031016745 -0.07037047
0000c0 66 55 8a bd c9 d2 7a 3d c0 6d 05 3d 53 d9 f6 3b
       -0.0675457 0.061236177 0.03257537 0.0075332313
0000d0 dd 56 9d bd d6 3a 4d 3d 66 1e 8f 3d 96 93 a9 3d
       -0.076825835 0.05010494 0.0698822 0.08280103
0000e0 85 40 9f bc cb be 9f bd bd d2 eb bc d2 26 06 3d
       -0.019439945 -0.07800063 -0.028787011 0.032751866
0000f0 78 19 c2 3b 6c 8e dd bc 80 55 01 bd fb b6 54 3d
       0.0059234463 -0.027045451 -0.03157568 0.051932316
000100 58 9a 6a bc 60 32 7d 3d 44 ce 3f bd 8a 98 44 3d
       -0.014319025 0.06181562 -0.04682757 0.047997035
000110 96 19 86 bc f3 11 e0 bc d5 4a 50 3d 1f 55 92 3d
       -0.016369622 -0.027352309 0.050852615 0.07145142
000120 4c 1e 0b 3d e9 95 25 3d 1c 60 32 bc b4 b7 0e 3d
       0.03396444 0.04042617 -0.010887172 0.03484316
000130 45 99 9b 3d 8b 57 4a 3d 6a a6 4d 3d 5e 47 d8 3c
       0.07597593 0.049399894 0.050207533 0.026401218
000140 f8 01 0e 3d e7 5e b8 bd ca 34 cd 3c 33 bd b4 3d
       0.034669846 -0.09002476 0.025049586 0.088251494
000150 61 eb 97 3d c4 39 e6 bb 2c 7e 5e 3d bf e4 18 bd
       0.07417942 -0.007025929 0.054319546 -0.037327524
000160 cf f9 80 bd 6a 5c 9e 3d 34 2c a3 3d 45 b6 4e bd
       -0.06297647 0.0773247 0.079674155 -0.050466795
000170 0a 1a b2 bd 6e 18 ab bd 12 86 8e bd 54 57 4d 3d
       -0.08696373 -0.08354269 -0.06959166 0.05013211
000180 7a bb 7e 3d 09 67 c6 bc 24 bd c9 bc f6 e4 ad 3d
       0.06219051 -0.024219053 -0.024626322 0.084909365
000190 9a 52 c6 bc 98 45 38 3c 72 8c 91 bd 9c 74 4c bd
       -0.02420931 0.011247061 -0.07106866 -0.049915895
0001a0 69 5a 56 3d 5a 3f ef 3c a1 62 ff bc 86 36 45 bd
       0.052332316 0.029205013 -0.03117496 -0.0481477
0001b0 1c 10 57 bb 1a e3 0b 3d f1 cb ae bd 35 15 e3 bd
       -0.0032815998 0.034152128 -0.085349925 -0.11088029
0001c0 19 b4 00 bd dc 41 99 3d 9b 16 ab bd e8 8f ba bd
       -0.031421755 0.07483265 -0.08353921 -0.09109479
0001d0 c0 a6 c8 bc 72 f4 8f 3d 59 41 26 3d 10 a8 e1 bc
       -0.024493575 0.07029046 0.040589664 -0.027545959
0001e0 36 68 5f 3d f3 9b 75 bc 87 e6 a5 bd bd 35 78 3d
       0.054542743 -0.0149907945 -0.0810061 0.060598124
0001f0 eb 9c 0b bd dc 36 33 3d bd ce 4d 3d 06 bd 55 3d
       -0.034085196 0.04375349 0.05024599 0.05218222
000200 fd bb 76 3d 15 72 00 bd f2 e9 71 bd c0 34 4b 3d
       0.060237873 -0.031358797 -0.059061 0.049610853
000210 ab b2 82 3d 3e 10 7b 3d 85 d3 f6 bc 68 06 4f bb
       0.063817345 0.061294787 -0.030130157 -0.0031589512
000220 eb e1 e0 bc 81 6a ab 3d 57 c5 1a 3d fc 54 7b 3c
       -0.027451476 0.083699234 0.037785854 0.015340086
000230 96 10 df 3c 1d fa c3 bd 38 77 e5 bc 26 e2 79 3d
       0.027229588 -0.0956919 -0.02801095 0.061006688
000240 72 20 14 bd a4 2f 08 bd e5 29 1f bd e8 fb b3 bd
       -0.036163755 -0.03324856 -0.038858313 -0.08788282
000250 33 bb ee 3c 9b 17 89 bd fd eb 19 bd 61 71 63 bd
       0.029141998 -0.066939555 -0.03757857 -0.05552805
000260 c8 08 ad bc 4a fa 19 bc ce 12 3c 3a 98 a6 ea bc
       -0.021122351 -0.0093980525 0.0007174433 -0.028643891
000270 67 c8 b7 3c 6c d0 a5 bc f8 8a 0d bd 48 9c 98 3d
       0.022434426 -0.020240985 -0.03455636 0.07451683
000280 68 a6 8a bd 38 8e 5b bd ac d7 54 3d 64 c1 c1 bd
       -0.06770021 -0.053602427 0.051963493 -0.094607145
000290 db cf 5b 3d fa c3 1b bd 8a 85 9d bd 2c 05 81 3d
       0.053665023 -0.038028695 -0.07691486 0.062998146
0002a0 06 19 7c bd 34 a2 69 3c 32 4a 41 3d 6e b9 5d 3c
       -0.0615473 0.014259864 0.0471899 0.013532979
0002b0 b0 3b 9a 3d b9 82 0e ba 80 45 97 bd e8 f3 fc 3c
       0.07530916 -0.00054363493 -0.07386303 0.030878022
0002c0 30 8d 9e 3d 88 7c a6 bd 3a 11 20 3d 47 11 88 3d
       0.07741773 -0.08129221 0.03907893 0.066439204
0002d0 ad 40 1e bd 34 c6 01 bd 96 d5 1c 3d 7e 90 71 bc
       -0.0386359 -0.03168316 0.03828963 -0.014743922
0002e0 49 13 51 3d 4b 9e 05 3d a3 a7 91 bb 53 0f 10 bc
       0.051043782 0.032621663 -0.0044450327 -0.008792716
0002f0 38 d1 4f bd 03 c3 ac bd bb 46 75 bd 8c dd bd 3b
       -0.050736636 -0.08435633 -0.059881907 0.0057942327
000300 e0 4d a6 3c b4 81 df 3c 77 de 57 bc ea 44 2a 3c
       0.020300806 0.027283527 -0.013175598 0.010392407
000310 5a 3a 2a bc d8 32 a8 3d 13 0f 3b bd c8 50 b6 bd
       -0.010389889 0.08212823 -0.045668673 -0.089021266
000320 7e f0 08 bc 80 f7 ab 3c fe 5c 87 bc 31 4e a1 bd
       -0.008358119 0.02099204 -0.016523834 -0.07876242
000330 c8 44 9c bd 4c fd 79 bc 36 85 08 bd d4 28 a8 3c
       -0.076303065 -0.015258145 -0.033330165 0.02052728
000340 e9 53 1a 3d 8c 8d ad 3c 17 b1 36 bc 8f 48 bc bc
       0.03767768 0.021185659 -0.01115062 -0.022983817
000350 2f f2 9a bd a0 05 fa 3c 67 ec 4d bd e7 3a 7d bc
       -0.07565724 0.03052026 -0.05027428 -0.015455938
000360 e4 cb 27 3d bd fa a8 3d 0e e6 57 3d bc 08 a8 3c
       0.04096593 0.082509495 0.05270963 0.020511977
000370 a8 fa ca 3b e6 f9 4c 3d 6c d0 b9 bd 16 15 9f 3d
       0.0061944313 0.05004301 -0.090729564 0.07767694
000380 a5 a7 71 3c 73 1f 93 bb 90 02 2c bd 2a 5a 78 bd
       0.014749442 -0.004489833 -0.04199463 -0.060632862
000390 4d 09 0a 3d dc 7e 50 bc 6b c2 6e bd 7e 78 af 3d
       0.033700276 -0.012725558 -0.05829088 0.08567904
0003a0 1e 85 a6 bc 89 96 81 3d 64 c0 a4 3d f4 d7 ac 3d
       -0.020327147 0.063275404 0.08044508 0.08439627
0003b0 4c 9e a1 3d 7b 29 46 bc 42 3c ae 3d e1 9a 06 3c
       0.07891521 -0.012094851 0.08507587 0.008215637
0003c0 5f e2 41 3d 40 be 96 3c 30 95 b5 3c 0a 99 c1 bb
       0.047335025 0.018401265 0.022165865 -0.0059081363
0003d0 cc 8a 48 3d ad e3 80 3d 6d bb e0 3b e6 a0 ae 3d
       0.048960492 0.06293426 0.0068582804 0.08526783
0003e0 d0 ca 3e 3d 1c a5 0a 3c 08 18 c0 3b b1 d8 81 3d
       0.046580136 0.008462217 0.0058622397 0.06340159
0003f0 99 a7 8a bc 5a e9 ab 3d a0 42 64 bd fc 46 18 3d
       -0.01692562 0.08394118 -0.0557276 0.03717707

l3.bias f4 [2]
000000 ac ee 10 bd 3c 78 bb 3c
       -0.035383865 0.02288448
